best_model.pt (torch, 69606 bytes, 6 tensors)

conv1.bias f4 [128]
-0.094623394 -0.10177271 -0.04807221 -0.081402354 -0.08598035 -0.09383013 -0.08410764 -0.0797564
-0.08515091 -0.04982555 -0.13125719 -0.10127968 -0.05785687 -0.060849104 -0.1332527 -0.059691966
-0.13060856 -0.012358488 -0.15400207 -0.06564116 -0.059926677 0.0059408033 -0.15835905 -0.15211527
-0.07686255 -0.09891032 -0.07041845 -0.09710975 -0.0852436 -0.1284968 -0.032425605 -0.1198334
-0.1129944 -0.07222573 -0.11883222 -0.085637756 -0.06873514 -0.07012007 -0.06557897 -0.04617057
-0.07922889 -0.07417338 -0.07241618 -0.11859922 -0.07277384 -0.06832164 -0.05782697 -0.07714797
-0.034837868 -0.042763017 -0.22575901 -0.0607818 -0.1564125 -0.06772476 -0.07620157 -0.14994277
-0.037033357 -0.06750603 -0.057774507 -0.036457747 -0.05963534 -0.0453754 -0.019961169 -0.057729673
-0.14930923 -0.053991493 -0.06173886 -0.10186972 -0.16788937 -0.079040945 -0.17833751 -0.05907378
-0.043575294 -0.08794569 -0.083950326 -0.20084272 -0.07068588 -0.0999817 -0.04618609 -0.13223094
-0.097372994 -0.054339044 -0.16972175 -0.09204064 -0.09311357 -0.108473636 -0.07675725 -0.028012233
-0.048596293 -0.052229162 -0.17186342 -0.19683923 -0.11594006 -0.054633655 -0.023105074 -0.07886439
-0.10367397 -0.112383515 -0.1890358 -0.16734993 -0.11791501 -0.09618958 -0.08486734 -0.20964548
-0.13089263 -0.088040195 -0.094714195 -0.16898692 -0.080464564 -0.15812032 -0.049933385 -0.08327832
-0.1109068 -0.12985936 -0.18624608 -0.13644859 -0.116148606 -0.0967461 -0.07116618 -0.15573595
-0.065831855 -0.04716375 -0.08602818 -0.10791859 -0.20736682 -0.10642552 -0.18591788 -0.050349984
00000000: e9c9 c1bd 366e d0bd 5ee7 44bd 47b6 a6bd
00000010: 7716 b0bd 032a c0bd a040 acbd 5357 a3bd
00000020: 9a63 aebd e015 4cbd 4968 06be b96b cfbd
00000030: 53fb 6cbd e93c 79bd 6573 08be 907f 74bd
00000040: 40be 05be 417b 4abc b8b2 1dbe df6e 86bd
00000050: ad75 75bd 12ab c23b e028 22be 1bc4 1bbe
00000060: 1d6a 9dbd 7e91 cabd 8c37 90bd 7ae1 c6bd
00000070: 3294 aebd aa94 03be b6d0 04bd 376b f5bd
00000080: 9c69 e7bd 15eb 93bd 4f5e f3bd d962 afbd
00000090: 02c5 8cbd 1c9b 8fbd 444e 86bd 5a1d 3dbd
000000a0: c242 a2bd 37e8 97bd ef4e 94bd 26e4 f2bd
000000b0: 730a 95bd 37ec 8bbd f9db 6cbd c1ff 9dbd
000000c0: 27b2 0ebd 4628 2fbd 5f2d 67be 56f6 78bd
000000d0: 992a 20be 47b3 8abd 920f 9cbd 998a 19be
000000e0: 4ab0 17bd 9a40 8abd f6a4 6cbd b854 15bd
000000f0: 3044 74bd 8edb 39bd 9b85 a3bc f375 6cbd
00000100: 85e4 18be 2f26 5dbd e3e1 7cbd 12a1 d0bd
00000110: 31eb 2bbe 38e0 a1bd 1c9e 36be 59f7 71bd
00000120: 027c 32bd df1c b4bd 26ee abbd b7a9 4dbe
00000130: c2c3 90bd 35c3 ccbd a02d 3dbd 8c67 07be
00000140: 7e6b c7bd 9e92 5ebd 8acb 2dbe ce7f bcbd
00000150: 54b2 bebd 6d27 debd e832 9dbd e979 e5bc
00000160: e80c 47bd 3fee 55bd f7fc 2fbe 3990 49be
00000170: fb71 edbd 8ac7 5fbd da46 bdbc a783 a1bd
00000180: 0553 d4bd 5429 e6bd 9a92 41be c85d 2bbe
00000190: 6d7d f1bd 0bff c4bd eece adbd 4ead 56be
000001a0: b808 06be 6b4e b4bd 84f9 c1bd e80a 2dbe
000001b0: 9bca a4bd 4bea 21be f386 4cbd d38d aabd
000001c0: 1b23 e3bd daf9 04be 4bb7 3ebe 2eb9 0bbe
000001d0: 52df edbd d222 c6bd 93bf 91bd 3f79 1fbe
000001e0: dad2 86bd c72e 41bd 8b2f b0bd 6c04 ddbd
000001f0: f857 54be 9ff5 d9bd 4261 3ebe c93b 4ebd

conv1.lin.weight f4 [128, 64]
-0.024347965 -0.15480205 -0.13890651 0.080111966 0.115516916 0.17535686 0.006067197 -0.16547729
-0.01168669 0.045233686 0.054592222 0.10953572 0.125607 0.0065415795 0.031099789 -0.035954088
0.07517625 -0.14730965 -0.15463924 -0.11421661 0.14060384 -0.06377593 -0.16414987 -0.021321673
0.04861197 0.07301377 0.10494492 -0.04183579 -0.035757855 0.04604287 0.1543381 -0.103243455
0.0073999176 -0.16264784 -0.01581666 0.020629143 -0.06455962 -0.08233847 0.10202745 -0.0046916064
0.06601927 -0.02572149 0.13230085 0.1554699 0.06485012 -0.05279702 -0.17314138 -0.13613972
-0.106770925 0.055404507 0.21221931 -0.22149913 -0.30184126 0.05521776 0.083181165 0.1490587
-0.011348037 -0.0689099 0.07636687 -0.0024308693 -0.0018976231 -0.030401248 -0.0381294 0.12494933
-0.0451428 -0.40927526 0.024690397 -0.06344476 0.09320879 0.13133442 0.2125101 -0.20614924
0.28586698 -0.03998511 0.075639434 0.20941706 0.16160697 -0.040179465 -0.0011464029 -0.024583817
-0.02829872 0.026272785 0.005211544 0.011292376 0.12458892 -0.0538545 0.16722319 -0.0054084687
-0.09730112 0.2859392 -0.22306699 0.023737688 -0.5482418 -0.100562446 0.038495544 -0.09577957
-0.044496052 0.031200074 0.06513977 -0.0906025 -0.050894193 0.117904775 -0.026214646 0.2567415
-0.16592927 0.2861816 0.4571523 0.24205156 -0.12754697 0.011574738 -0.35665536 -0.05895453
-0.029699773 0.06091905 -0.23216043 0.32514507 -0.039627153 0.17182024 -0.35078338 0.49608842
0.18385763 -0.2579066 0.07402486 -0.26061237 0.21103835 0.14938514 0.15541092 -0.27171573
0.1230031 0.2456495 -0.19546425 0.18199298 0.04934252 0.1298946 -0.56637275 -0.0698172
-0.20174606 0.25861678 0.063050635 0.30294567 0.07509643 -0.23453707 0.009196149 0.06802129
0.0138262175 -0.6746956 -0.033085503 -0.18415417 -0.07761416 -0.18593192 0.14862795 -0.13471669
-0.3574264 -0.08804892 0.16817416 0.14878698 0.2880851 -0.10097297 0.47227314 0.32610673
-0.19945207 -0.18771733 0.031546745 0.025701065 0.008483086 0.20307072 0.39263877 0.037163794
-0.02974281 0.0592641 0.26275036 -0.05331386 0.07680448 -0.2543131 0.2349977 0.008165994
-0.059785455 -0.14240547 0.08264073 0.3268389 -0.07009296 -0.13038121 0.23572509 0.21328238
0.029470744 0.13472588 -0.30360955 -0.088826805 -0.02277723 0.16706783 -0.41709125 0.14688231
0.11561239 0.1624696 -0.25657165 -0.10608283 -0.21459661 0.16159157 0.06944399 0.19194032
-0.06561361 0.11159742 -0.110676914 0.1955612 0.17331558 -0.08261337 0.18569414 0.3462306
-0.11226526 -0.015502575 0.13591774 -0.20532528 0.16346334 -0.10699217 0.014838621 -0.13828835
-0.035967104 -0.22041015 -0.3359025 -0.21081248 -0.34935638 -0.22748864 0.027437655 0.030118182
-0.23053087 0.2117783 0.054768384 -0.03023585 -0.33832073 0.074833855 0.012163137 0.21038453
-0.21374941 0.08858164 0.13245615 0.01205673 -0.14271422 -0.109447606 -0.02647103 0.000113664195
-0.06749122 -0.34304366 0.2718009 -0.19155903 -0.09180609 0.09257004 -0.41663855 0.19387518
-0.14760894 -0.088772275 0.2689284 0.0068434714 -0.185156 0.028147247 -0.34102353 -0.21359022
00000000: 6275 c7bc 6e84 1ebe 823d 0ebe be11 a43d
00000010: 2294 ec3d c090 333e 56cf c63b e172 29be
00000020: 8879 3fbc f546 393d 189c 5f3d 4354 e03d
00000030: 1f9f 003e bf5a d63b fcc4 fe3c 9844 13bd
00000040: 01f6 993d 57d8 16be c059 1ebe 66ea e9bd
00000050: 74fa 0f3e f49c 82bd e716 28be caaa aebc
00000060: 581d 473d 3e88 953d 5ded d63d 015c 2bbd
00000070: d476 12bd 7397 3c3d cf0a 1e3e 4e71 d3bd
00000080: 027b f23b 288d 26be f191 81bc 73fe a83c
00000090: d637 84bd 12a1 a8bd c5f3 d03d 0cbc 99bb
000000a0: 1c35 873d e0b5 d2bc e079 073e 8033 1f3e
000000b0: 24d0 843d b041 58bd f94b 31be 3668 0bbe
000000c0: b7aa dabd d6ef 623d 0550 593e abd0 62be
000000d0: f08a 9abe 052c 623d e35a aa3d d8a2 183e
000000e0: 1eed 39bc a220 8dbd 3c66 9c3d 384f 1fbb
000000f0: aab9 f8ba 0a0c f9bc 932d 1cbd 6fe5 ff3d
00000100: a8e7 38bd 878c d1be 8443 ca3c 54ef 81bd
00000110: 40e4 be3d 887c 063e 3f9c 593e c918 53be
00000120: 285d 923e 6dc7 23bd d9e8 9a3d 6d71 563e
00000130: 4c7c 253e 3993 24bd e642 96ba 0064 c9bc
00000140: b8d2 e7bc 063a d73c 9ac5 aa3b a803 393c
00000150: 7a28 ff3d 8996 5cbd 8e3c 2b3e 8639 b1bb
00000160: cf45 c7bd 9f66 923e ac6b 64be 8a75 c23c
00000170: 9359 0cbf aff3 cdbd 81ad 1d3d 1428 c4bd
00000180: 7e41 36bd 4c97 ff3c 0068 853d ce8d b9bd
00000190: 6e76 50bd 0f78 f13d 19c0 d6bc 9f73 833e
000001a0: 5de9 29be 6586 923e de0f ea3e 5ddc 773e
000001b0: ac9b 02be f8a3 3d3c 889b b6be 4e7a 71bd
000001c0: f04c f3bc 4186 793d 77bb 6dbe 6a79 a63e
000001d0: 1550 22bd a5f1 2f3e e199 b3be 4dff fd3e
000001e0: 2d45 3c3e 550c 84be 599a 973d fc6e 85be
000001f0: 701a 583e 6bf8 183e 0a24 1f3e 531e 8bbe
00000200: 0de9 fb3d 8b8b 7b3e c827 48be 5e5c 3a3e
00000210: 621b 4a3d 1703 053e cefd 10bf 52fc 8ebd
00000220: 8596 4ebe 6b69 843e b120 813d b21b 9b3e
00000230: 28cc 993d 7c2a 70be 72ab 163c bf4e 8b3d
00000240: 5c87 623c dab8 2cbf aa84 07bd e992 3cbe
00000250: 2cf4 9ebd f064 3ebe ed31 183e 2cf3 09be
00000260: 9800 b7be fe52 b4bd d935 2c3e 9d5b 183e
00000270: e47f 933e ebca cebd c9cd f13e 76f7 a63e
00000280: 2a3d 4cbe f938 40be 2937 013d 0a8b d23c
00000290: a4fc 0a3c c5f1 4f3e f307 c93e 1039 183d
000002a0: 32a7 f3bc eabe 723d 3787 863e a25f 5abd
000002b0: ab4b 9d3d 5435 82be 3da3 703e a9ca 053c
000002c0: 98e1 74bd bdd2 11be 8b3f a93d 6e57 a73e
000002d0: e68c 8fbd a782 05be eb61 713e b266 5a3e
000002e0: a16c f13c 95f5 093e b672 9bbe d4ea b5bd
000002f0: 5097 babc d413 2b3e fc8c d5be 5168 163e
00000300: 30c6 ec3d 6e5e 263e 5c5d 83be f441 d9bd
00000310: 37bf 5bbe 4378 253e a738 8e3d 018c 443e
00000320: 6e60 86bd 308d e43d 94aa e2bd 3241 483e
00000330: a479 313e 3331 a9bd 9b26 3e3e 2345 b13e
00000340: 54eb e5bd 83fe 7dbc 052e 0b3e ca40 52be
00000350: ef62 273e b61e dbbd b01d 733c 769b 0dbe
00000360: 3e52 13bd 33b3 61be 6afb abbe 3adf 57be
00000370: d7de b2be c8f2 68be efc4 e03c 68ba f63c
00000380: 4910 6cbe 69dc 583e d054 603d 2cb1 f7bc
00000390: 6038 adbe 7e42 993d e547 473c 0b6f 573e
000003a0: 20e1 5abe 4a6a b53d 96a2 073e 9789 453c
000003b0: ad23 12be 1126 e0bd c6d9 d8bc 005f ee38
000003c0: d638 8abd 6ba3 afbe 7d29 8b3e 0d28 44be
000003d0: d504 bcbd 5c95 bd3d a651 d5be 3787 463e
000003e0: cc26 17be 3dce b5bd fcb0 893e 333f e03b
000003f0: 8999 3dbe 0e95 e63c a39a aebe 65b7 5abe

conv2.bias f4 [64]
0.015775502 0.011972697 -0.030087 -0.006197772 0.025493843 -0.019618744 0.018819157 0.038422775
0.039295428 -0.009503075 0.00037216162 -0.03159965 0.026202679 -0.010400632 -0.038078047 -0.013801889
-0.018118536 -0.0039656796 0.012183464 0.013049312 -0.004802062 0.02073987 -0.030653004 -0.0042387787
0.007383964 -0.01753037 0.006556631 -0.010377428 0.019571008 -0.009256699 0.0012153927 -0.0142376935
0.019941403 -0.026783051 0.015497308 0.008890333 0.023063054 -0.033595707 -0.018925624 0.0347159
-0.01621344 0.027032342 -0.01224 -0.002586351 -0.0038640853 -0.016538858 0.019610576 -0.03583596
0.031931553 0.008955518 -0.017371848 -0.012876192 0.015860151 0.008432695 -0.0060554915 0.018477893
0.019814938 -0.02436664 0.021753348 0.0110292155 0.012955375 0.026748646 -0.0033293546 0.039991595
00000000: a03b 813c 2229 443c 0379 f6bc ae16 cbbb
00000010: 77d8 d03c 7db7 a0bc a22a 9a3c 3361 1d3d
00000020: 3ef4 203d c9b2 1bbc b01e c339 a26e 01bd
00000030: 00a7 d63c 6a67 2abc baf7 1bbd 5121 62bc
00000040: 536d 94bc 88f2 81bb 279d 473c c8cc 553c
00000050: 9e5a 9dbb a9e6 a93c 021c fbbc 74e5 8abb
00000060: 2ef5 f13b da9b 8fbc 02d9 d63b 1606 2abc
00000070: 6153 a03c 69a9 17bc d04d 9f3a 3745 69bc
00000080: 275c a33c 2168 dbbc 6ce8 7d3c c2a8 113c
00000090: bbee bc3c a79b 09bd e909 9bbc 4232 0e3d
000000a0: 0cd2 84bc ee72 dd3c 488a 48bc c57f 29bb
000000b0: 983c 7dbb 807c 87bc 5ca6 a03c bac8 12bd
000000c0: a9ca 023d 2aba 123c 684f 8ebc aaf6 52bc
000000d0: 26ed 813c 4929 0a3c 256d c6bb f35e 973c
000000e0: f052 a23c 8c9c c7bc 1434 b23c e2b3 343c
000000f0: c842 543c fa1f db3c 4d31 5abb 3ace 233d

conv2.lin.weight f4 [64, 128]
0.079594895 0.052626003 0.2941845 -0.24617834 0.09113445 -0.115804285 0.19876473 0.26296318
-0.25531304 0.03606041 -0.30072302 -0.089450724 -0.38315117 -0.04157978 -0.1849951 -0.07336713
-0.34360954 0.1369048 0.10596218 0.20015785 -0.17022324 0.26011235 0.10432336 -0.1786602
-0.093315534 -0.16027153 -0.32143506 0.4403035 -0.08994438 -0.0588239 0.22988214 0.13375919
0.45239156 -0.2776823 -0.17375556 0.22213912 -0.3917931 0.312232 -0.07692539 -0.25414276
-0.053863302 -0.2170448 -0.1919164 0.11751998 -0.25268912 0.038345136 -0.2800804 -0.34043378
0.16791213 -0.19355935 0.39062768 -0.31833413 -0.08629714 0.12098783 0.021416683 0.0928836
0.049382806 -0.27640122 0.118993 -0.13628703 0.29736137 0.06744235 0.1366215 0.23197056
-0.45645246 0.17992884 0.32533878 -0.32076678 0.21818835 0.051403016 -0.55056554 -0.17376783
0.22944608 -0.54917234 -0.034146436 -0.07693173 -0.013029043 0.21714768 -0.3177496 0.15334935
-0.003603593 0.012939688 -0.38249278 0.022407366 -0.28152815 0.1306756 0.20333008 -0.12540649
0.21798597 0.32393605 -0.1159675 -0.3893429 0.12951767 0.15373972 0.3279248 0.12246706
0.053759113 0.17592064 -0.13421302 0.12674792 -0.31809866 -0.417206 0.15584287 -0.3418319
0.2420765 -0.15677449 -0.45835215 -0.34264746 -0.08296906 0.18763182 -0.4652257 -0.04814981
-0.49463144 -0.06716462 -0.17147118 0.10484184 0.23173451 0.30714145 0.27897796 0.3053219
-0.16888316 0.0089569455 0.2980996 0.27535108 -0.37770012 0.34809855 0.08328545 0.09207345
-0.05410324 -0.15565313 -0.13700025 -0.041337892 -0.14652996 -0.06649421 -0.14084011 -0.17134403
0.022829333 0.15818189 0.20656957 0.13599998 0.0012692113 0.1904651 -0.08377227 0.05145629
0.19015388 -0.15591262 0.06013302 -0.05929471 0.1022411 0.022336733 -0.029001802 0.27605247
0.056852736 0.19054435 -0.029336862 -0.097589165 0.20298457 0.033867367 -0.22639783 -0.12156657
-0.26546186 -0.031606335 0.062459134 -0.13534331 0.092715696 -0.029030602 0.013700039 -0.005735252
0.23490305 0.23172672 0.24167503 -0.07946585 0.029366853 0.0049798684 0.10861603 -0.023033883
0.07533191 0.024455762 -0.036097955 0.24721488 0.046055548 -0.22908355 -0.10173341 -0.14546557
-0.039195005 -0.0105389245 -0.23352069 0.26672342 0.120331764 0.061862934 -0.11036597 -0.21124817
0.10313622 -0.16835707 -0.22812125 0.0016235645 -0.16137932 0.067222305 0.30593657 0.07301502
-0.057517145 0.268785 -0.07696199 -0.09887431 0.04082671 -0.03130591 0.09794697 -0.06269185
-0.0051010665 -0.011623343 0.16108194 0.07329065 -0.022883853 -0.16988915 -0.15730986 0.0143648395
0.04548073 -0.07984839 0.08225021 0.14937623 0.07769622 0.04389353 -0.044960883 -0.15602776
0.16458227 -0.19258721 0.14906472 0.07967352 -0.007924719 0.0047097234 -0.008560175 0.24358732
-0.20783341 -0.025643444 0.18590572 0.16812196 0.145788 -0.20172606 0.037854098 0.11783082
0.111919686 0.11532259 0.2077631 0.08400637 -0.13632394 0.05958966 -0.14591026 -0.23935568
0.032288756 -0.16912656 0.0059661414 -0.031828914 0.09620681 -0.23730825 -0.036851984 -0.2145939
00000000: a602 a33d 5d8e 573d 5a9f 963e 2d16 7cbe
00000010: b3a4 ba3d cc2a edbd fb88 4b3e 1ca3 863e
00000020: 64b8 82be 15b4 133d 5ef8 99be f131 b7bd
00000030: 642c c4be 8f4f 2abd 5b6f 3dbe 8141 96bd
00000040: 97ed afbe c630 0c3e b302 d93d 2ef6 4c3e
00000050: 004f 2ebe 722d 853e 7ca7 d53d b3f2 36be
00000060: 371c bfbd 381e 24be 2393 a4be 766f e13e
00000070: c234 b8bd 54f1 70bd 3966 6b3e 2bf8 083e
00000080: de9f e73e 602c 8ebe faec 31be 7078 633e
00000090: 1b99 c8be dfdc 9f3e 0f8b 9dbd 001f 82be
000000a0: c49f 5cbd fe40 5ebe bc85 44be 51ae f03d
000000b0: 7860 81be ca0f 1d3d b366 8fbe 564d aebe
000000c0: 28f1 2b3e 6c34 46be 5a00 c83e b1fc a2be
000000d0: 8ebc b0bd 78c8 f73d 0a72 af3c c239 be3d
000000e0: a045 4a3d 7684 8dbe 9ab2 f33d d48e 0bbe
000000f0: c03f 983e 371f 8a3d 82e6 0b3e b189 6d3e
00000100: 23b4 e9be 443f 383e ce92 a63e 8b3b a4be
00000110: c46c 5f3e f88b 523d ddf1 0cbf 32f0 31be
00000120: eaf3 6a3e 8f96 0cbf 22dd 0bbd 628e 9dbd
00000130: c477 55bc f65b 5e3e 13b0 a2be 9d07 1d3e
00000140: 422a 6cbb fc00 543c 18d6 c3be a78f b73c
00000150: 7524 90be d3cf 053e c335 503e 8f6a 00be
00000160: b737 5f3e f2da a53e 5e80 edbd f457 c7be
00000170: 48a0 043e f26d 1d3e c2e5 a73e 03d0 fa3d
00000180: 8432 5c3d 8a24 343e 236f 09be 35ca 013e
00000190: d4dd a2be 069c d5be 4695 1f3e 9704 afbe
000001a0: e7e2 773e 7e89 20be 22ad eabe 7d6f afbe
000001b0: afeb a9bd 8e22 403e 1032 eebe bc38 45bd
000001c0: 5540 fdbe 9b8d 89bd 2496 2fbe 52b7 d63d
000001d0: d04b 6d3e a541 9d3e 33d6 8e3e 2753 9c3e
000001e0: b5ef 2cbe 27c0 123c 83a0 983e d1fa 8c3e
000001f0: e961 c1be f939 b23e 9091 aa3d 0191 bc3d
00000200: 5c9b 5dbd 8963 1fbe cb49 0cbe ec51 29bd
00000210: f30b 16be 1e2e 88bd 6438 10be cf74 2fbe
00000220: 9504 bb3c 6ffa 213e f986 533e 9443 0b3e
00000230: aa5b a63a 4809 433e cc90 abbd d5c3 523d
00000240: b3b7 423e 8fa7 1fbe 0b4e 763d 03df 72bd
00000250: c863 d13d 86fb b63c 3095 edbc c056 8d3e
00000260: 6ade 683d 0f1e 433e dc53 f0bc d4dc c7bd
00000270: 30db 4f3e 82b8 0a3d d5d4 67be e5f7 f8bd
00000280: 9eea 87be a575 01bd 26d5 7f3d 7097 0abe
00000290: bae1 bd3d 96d1 edbc 2176 603c c8ee bbbb
000002a0: 6d8a 703e c549 6d3e a979 773e febe a2bd
000002b0: c192 f03c 2a2e a33b 1572 de3d 8eb1 bcbc
000002c0: 9e47 9a3d 7357 c83c 73db 13bd e625 7d3e
000002d0: bea4 3c3d e194 6abe 9b59 d0bd edf4 14be
000002e0: f18a 20bd 74ab 2cbc 0c20 6fbe f98f 883e
000002f0: 8070 f63d fd63 7d3d 8e07 e2bd 7151 58be
00000300: 1539 d33d cc65 2cbe 9e98 69be c9cd d43a
00000310: 9f40 25be d9ab 893d b8a3 9c3e e688 953d
00000320: 1997 6bbd 309e 893e 3f9e 9dbd 9d7e cabd
00000330: e939 273d a03a 00bd 6c98 c83d 9664 80bd
00000340: d926 a7bb d66f 3ebc aaf2 243e 6919 963d
00000350: eb76 bbbc 6cf7 2dbe d615 21be 815a 6b3c
00000360: 004a 3a3d 8d87 a3bd cc72 a83d 15f6 183e
00000370: 321f 9f3d b4c9 333d e728 38bd bec5 1fbe
00000380: 4188 283e 9535 45be 6ca4 183e df2b a33d
00000390: aed6 01bc 0654 9a3b fa3f 0cbc f46e 793e
000003a0: 48d2 54be 3312 d2bc 125e 3e3e 2a28 2c3e
000003b0: 7349 153e 4791 4ebe e60c 1b3d 4951 f13d
000003c0: 2636 e53d 402e ec3d dabf 543e 880b ac3d
000003d0: 8198 0bbe 4a14 743d 8069 15be a819 75be
000003e0: 3741 043d 832f 2dbe 9f7f c33b 095f 02bd
000003f0: 1308 c53d ef00 73be 1bf2 16bd 81be 5bbe

node_classifier.weight f4 [2, 64]
-0.3344324 -0.00428331 -0.25686347 -0.3447644 -0.016726933 -0.28978872 0.048763555 -0.72192186
-0.9132538 0.2987313 -0.21461426 0.84996444 0.15810136 0.060606245 0.04103374 0.16608441
-0.3573391 -0.09342498 0.03248846 -0.019952603 0.12687635 0.14483066 -0.043045606 0.23501153
-0.03146995 -0.047460645 -0.22604635 -0.13213886 0.2264042 0.096240684 -0.03969664 -0.052708756
-0.044762187 -0.75028014 -0.10318309 -0.24190557 -0.21257058 0.7524318 0.7778358 0.3570939
-0.16792306 0.036503736 -0.075094536 0.51709896 -0.47199804 -0.23535621 -0.57174534 -0.0054045827
0.10568475 -0.19106352 0.20948283 0.02206639 0.20807485 0.20944864 0.120187216 0.08488561
-0.036314644 0.14485367 0.099346556 4.5840934e-05 0.061004743 0.36591384 -0.017388778 0.22023867
0.38154003 -0.16122703 0.20800251 0.30476314 -0.046979547 0.31983438 -0.047100168 0.54618627
0.7169065 -0.05612595 0.12701322 -0.8735334 -0.16629979 0.09534027 0.08160989 -0.1018863
0.17328307 -0.04114579 -0.071069844 0.17888801 -0.07726791 -0.024606477 0.17091867 -0.123921596
0.020249585 -0.02332271 0.36998352 0.05861853 -0.18719037 -0.14956377 0.00049080886 0.010584292
-0.0920145 0.81511945 0.0058477228 0.29584476 0.17636906 -0.9574016 -0.82057 -0.4331772
0.02092792 -0.13325058 -0.038437795 -0.32721967 0.40986112 0.22012876 0.3835215 0.19373555
-0.101038575 0.24543776 -0.12372683 0.03079811 -0.20742895 -0.2555813 -0.24162534 -0.13809446
0.12992375 -0.17125775 0.06755388 0.0047602677 -0.15815729 -0.19880964 0.019759122 -0.17679925
00000000: b93a abbe 025b 8cbb 9c83 83be f684 b0be
00000010: ec06 89bc 305f 94be 4bbc 473d dfcf 38bf
00000020: 00cb 69bf 4ff3 983e d7c3 5bbe 4597 593f
00000030: 53e5 213e 413e 783d ff12 283d 0812 2a3e
00000040: 27f5 b6be 9955 bfbd 9f12 053d a473 a3bc
00000050: e0eb 013e 7d4e 143e 9750 30bd dda6 703e
00000060: a2e6 00bd 1866 42bd b278 67be 694f 07be
00000070: 81d6 673e d619 c53d f298 22bd 23e5 57bd
00000080: 8e58 37bd 5c12 40bf a851 d3bd 18b6 77be
00000090: 1aac 59be 5f9f 403f 3f20 473f 03d5 b63e
000000a0: 06f4 2bbe f184 153d 2acb 99bd 9960 043f
000000b0: baa9 f1be 3801 71be e75d 12bf ed18 b1bb
000000c0: 3f71 d83d 28a6 43be ab82 563e 93c4 b43c
000000d0: 9311 553e b479 563e b724 f63d 82d8 ad3d
000000e0: aabe 14bd 8554 143e 3576 cb3d 5445 4038
000000f0: 1ce0 793d 0f59 bb3e e972 8ebc 3f86 613e
00000100: 3759 c33e b318 25be 9cfe 543e ea09 9c3e
00000110: a06d 40bd 55c1 a33e 1bec 40bd ddd2 0b3f
00000120: 2f87 373f 53e4 65bd c10f 023e e39f 5fbf
00000130: 7e4a 2abe c241 c33d 1623 a73d c4a9 d0bd
00000140: 1e71 313e 7d88 28bd 118d 91bd 6b2e 373e
00000150: a33e 9ebd 8693 c9bc 4e05 2f3e 9bca fdbd
00000160: 75e2 a53c 450f bfbc 7b6e bd3e fc19 703d
00000170: d5ae 3fbe 3f27 19be a0a9 003a bd69 2d3c
00000180: 1972 bcbd abab 503f 419e bf3b f778 973e
00000190: 179a 343e 4518 75bf e010 52bf 67c9 ddbe
000001a0: 0771 ab3c d772 08be f370 1dbd 5689 a7be
000001b0: 51d9 d13e 6f69 613e ee5c c43e 9d62 463e
000001c0: 50ed cebd 0954 7b3e 7e64 fdbd 514c fc3c
000001d0: 4168 54be 8ddb 82be a26c 77be a268 0dbe
000001e0: bb0a 053e 315e 2fbe b059 8a3d 05fc 9b3b
000001f0: fcf3 21be c194 4bbe e2dd a13c dd0a 35be

node_classifier.bias f4 [2]
0.019519186 -0.07704412
00000000: b3e6 9f3c 4fc9 9dbd
