best_model.pth (torch, 338274 bytes, 17 tensors)

conv1.convs.<drug___interacts___gene>.lin_l.weight f4 [128, 64]
0	0xbc825222	-0.015908305
1	0x3d8d9785	0.06913666
2	0xbd6a89a0	-0.057260156
3	0x3e73b6e6	0.23800239
4	0xbd9d111f	-0.07669281
5	0xbe3cc421	-0.18434192
6	0x3dec660f	0.11542904
7	0x3df5a03b	0.11993452
8	0xbbe24f41	-0.0069064205
9	0x3de6ceca	0.11269911
10	0xbd4c8602	-0.049932487
11	0x3b6a3355	0.0035736163
12	0x3d8204ec	0.06348595
13	0x3cdf340c	0.027246498
14	0x3def4464	0.11682966
15	0x3e13d06f	0.1443498
16	0xbc373efb	-0.011184449
17	0x3cc266c2	0.02373064
18	0x3d85e1df	0.06537222
19	0x3da7f961	0.08201862
20	0xbd9cffdd	-0.076659895
21	0xbe083dc7	-0.13304816
22	0xbe09264c	-0.13393515
23	0xbe0e8d93	-0.13921194
24	0x3ce9d7f9	0.028545367
25	0x3d9d492d	0.07679973
26	0x3d7f6e1c	0.062360868
27	0x3e3fd136	0.18732151
28	0xbe371eb1	-0.17882802
29	0xbd4283b8	-0.047488898
30	0xbd8b7922	-0.068102136
31	0x3cb38829	0.021915512
32	0xbd385ba3	-0.045009267
33	0xbdaeebaf	-0.08541047
34	0xbbe09577	-0.006853755
35	0xbdd7ca09	-0.10536582
36	0xbda8710a	-0.082246855
37	0xbd76ea06	-0.060281776
38	0xbdbe1c2a	-0.092827156
39	0xbdf3c4ce	-0.11902772
40	0xbde83914	-0.11339012
41	0x3c9b4d3c	0.018957727
42	0xbd445b54	-0.04793866
43	0xbdd9a35a	-0.1062686
44	0x3d4f2e05	0.050580997
45	0x3de41488	0.111367285
46	0x3e03f83f	0.12887667
47	0xbda5784d	-0.08079586
48	0xbe3a7c0e	-0.18211386
49	0x3dc8c5d7	0.0980336
50	0x3dfd7877	0.123764925
51	0x3d9dbcf8	0.077020586
52	0x3ce05b03	0.027387148
53	0x3bd97668	0.0066364296
54	0xbe019b5b	-0.1265692
55	0x3c51d3be	0.012806831
56	0x3d3f60d6	0.04672321
57	0xbdeedc19	-0.11663074
58	0x3e14cf49	0.14532198
59	0x3d8c4e66	0.06850891
60	0x3d9cae72	0.0765046
61	0xbe0ca9ce	-0.1373665
62	0xbde6d64f	-0.11271345
63	0x3e406cef	0.18791555
64	0x3d38ad81	0.04508734
65	0x3e125a79	0.14292325
66	0x3e036e58	0.12835062
67	0x3dc76f26	0.09737997
68	0x3cf658e8	0.03007169
69	0x3b939296	0.0045035584
70	0x3dca0a47	0.098652415
71	0xbdb0ad98	-0.086268604
72	0x3df56ecf	0.11984026
73	0xbd4fc37e	-0.050723545
74	0xbd5157e5	-0.051109213
75	0x3dabc382	0.083868995
76	0x3d8d8172	0.06909455
77	0x3d6292e6	0.055315875
78	0x3d8cba1d	0.06871436
79	0x3d780a9b	0.06055699
80	0x3d800363	0.06250646
81	0x3e325e2a	0.17418733
82	0x3e12d6ae	0.14339706
83	0x3cd126dc	0.025531225
84	0x3d184d28	0.037182957
85	0xbe453f59	-0.19262446
86	0x3da80c15	0.082054295
87	0xbe0d27b9	-0.13784684
88	0x3d5b5ef3	0.053557348
89	0xbcf2b846	-0.029628884
90	0xbd9d1ed1	-0.076718934
91	0x3e093395	0.13398583
92	0xbe0c005c	-0.13672012
93	0x3d7aa271	0.061190072
94	0xbdcef783	-0.10105803
95	0xbbc2445b	-0.0059285588
96	0x3e18518e	0.1487486
97	0xbdd86cc9	-0.10567624
98	0x3da4fcb0	0.08056009
99	0xbd85c8dc	-0.065324515
100	0x3db40062	0.087891355
101	0x3c5fbfee	0.013656599
102	0xbc82c5d5	-0.015963474
103	0x3e1990fa	0.1499671
104	0x3bb74657	0.005593102
105	0x3d96d37d	0.07364557
106	0xbdaedfe8	-0.085388005
107	0x3c86f521	0.016474308
108	0xbbe7a8cc	-0.0070696827
109	0x3c9583e4	0.018251367
110	0xbdc1f6d9	-0.094709106
111	0x3decd013	0.115631245
112	0x3d4c2878	0.04984328
113	0x3da8fb30	0.08251035
114	0x3d6dbc3c	0.058040842
115	0x3d6bccb2	0.05756826
116	0x3d507647	0.050894048
117	0xbda14591	-0.07874597
118	0xbc8d3d7a	-0.017241228
119	0x3d44df0b	0.048064273
120	0xbc8464a7	-0.016161276
121	0x3db52223	0.08844402
122	0xbdd3abcb	-0.10335501
123	0x3df74182	0.120730415
124	0x3e06c9ff	0.13162993
125	0xbdfa9af7	-0.122365884
126	0x3d3b2358	0.045688003
127	0x3d946426	0.07245664
128	0x3df53ef8	0.11974901
129	0x3e039634	0.12850267
130	0xbd917094	-0.07101551
131	0x3e354093	0.17700414
132	0xbd5fb324	-0.0546142
133	0x3e1710f6	0.14752564
134	0x3e122753	0.14272813
135	0xbd2feaf9	-0.042948697
136	0x3d98d578	0.07462591
137	0x3d0eb0c4	0.034836546
138	0x3d2aa355	0.04165967
139	0xbd0a0fa9	-0.03370634
140	0x3dc520c3	0.096253894
141	0x3e1e2e6d	0.15447398
142	0xbcc6d651	-0.024272116
143	0x3db5ab04	0.08870509
144	0x3c6924a1	0.014229924
145	0x3dcce32c	0.10004267
146	0x3c9da3bd	0.019243116
147	0xbe1b7e3f	-0.15184878
148	0x3d44fcd8	0.048092693
149	0x3d9ec745	0.077528514
150	0x3e27390c	0.16330355
151	0xbcf3e875	-0.02977393
152	0xbd0b112e	-0.03395193
153	0x3cded997	0.027203364
154	0xbd219507	-0.039448764
155	0x3ca827b3	0.020526743
156	0xbce05c6d	-0.027387822
157	0xbe0de8b7	-0.13858305
158	0x3cbd9749	0.023143427
159	0x3d0e3050	0.034714043
160	0xbd1fc6c1	-0.039007906
161	0x3d03388c	0.03203635
162	0xbd905d4c	-0.07049045
163	0x3d1a6c3a	0.03770087
164	0x3d1fdea2	0.03903068
165	0xbe0e7bd1	-0.1391442
166	0xbe328c80	-0.17436409
167	0x39bbce10	0.00035820948
168	0xbd21865f	-0.039434787
169	0xbd2ae6fe	-0.041724198
170	0xbdb98469	-0.09058458
171	0xbc3cbfcc	-0.011520337
172	0x3d9276ed	0.071515895
173	0xbdd751b2	-0.10513629
174	0x3dcfdfab	0.10150083
175	0xbe05d91f	-0.13071106
176	0xbd6b2c42	-0.057415254
177	0x3dc24337	0.094854765
178	0x3daa434c	0.08313617
179	0x3db6b8fd	0.089220025
180	0xbdaf2dd2	-0.085536614
181	0xbccada4b	-0.024762293
182	0xbd823063	-0.06356885
183	0xbc6164b3	-0.013756919
184	0xbd816a2d	-0.063190795
185	0x3e3f2e3a	0.18669978
186	0xbda8de46	-0.0824552
187	0x3dd1631d	0.102239825
188	0x3dbb114b	0.09134158
189	0x3d2e9607	0.042623546
190	0xbd231234	-0.03981228
191	0x3d4b8ff7	0.049697842
192	0x3d93371d	0.071882464
193	0xbceb5511	-0.028727086
194	0xbdac183b	-0.08403059
195	0xbbea14ae	-0.0071435785
196	0xbc36f2fa	-0.011166329
197	0x3cb17966	0.021664333
198	0xbcd1bc9b	-0.02560263
199	0xbd1d66f9	-0.03842828
200	0x3d11a234	0.03555508
201	0xbc18d004	-0.009326939
202	0x3bdafaba	0.006682721
203	0xbcce3b9c	-0.025174908
204	0xbca22ca4	-0.019796677
205	0xbdd90ced	-0.105981685
206	0x3cc891ae	0.024483528
207	0xbc95a4cf	-0.018267063
208	0x3d68213b	0.056672316
209	0x3d1cd338	0.03828737
210	0x3cb08a4b	0.021550318
211	0x3aab9542	0.0013090747
212	0xbd3051f2	-0.0430469
213	0x3d78fda2	0.060788758
214	0x3bc260bb	0.0059319413
215	0x3d0a586a	0.033775724
216	0x3c85b364	0.016320892
217	0x3c900200	0.017579079
218	0x3cbabb24	0.022794314
219	0xbd173d7e	-0.036923878
220	0x3c25dca9	0.01012341
221	0xbc5cf793	-0.013486761
222	0x3c30fb55	0.01080211
223	0x3cfa0204	0.03051854
224	0x3d15c8a8	0.036568314
225	0x3d9b275e	0.07575868
226	0xbc8aa868	-0.016926005
227	0x3d2de7bc	0.042457327
228	0xbd000d14	-0.031262472
229	0xbd1f8a14	-0.03895004
230	0xbd496bdb	-0.049175125
231	0x3c9937b4	0.01870332
232	0xbc51b984	-0.012800578
233	0x3c5191b8	0.01279109
234	0xbd08cec8	-0.033400327
235	0x3c928528	0.01788576
236	0xbc9baa31	-0.019002052
237	0xbc9b6072	-0.018966887
238	0x3d927c68	0.07152635
239	0x3d48d514	0.049031332
240	0xbd6e5b07	-0.05819228
241	0x3d3460dd	0.04403769
242	0x3d63506a	0.05549661
243	0x3d545c7d	0.051846016
244	0x3b360f66	0.0027780174
245	0x3c81dc42	0.015852097
246	0x3d5a1e21	0.05325139
247	0xbc81d518	-0.015848681
248	0x3cfbb472	0.030725691
249	0xbc9a342e	-0.01882371
250	0x3d92b7e1	0.07163978
251	0x3d2644b1	0.040592853
252	0x3c567e99	0.013091707
253	0xbd1d862e	-0.03845804
254	0xbd95cbee	-0.07314287
255	0xbd902895	-0.070389904

conv1.convs.<drug___interacts___gene>.lin_l.bias f4 [128]
0	0xbd8dcfbb	-0.06924387
1	0xbe01f719	-0.12691917
2	0xbddb890d	-0.107195
3	0xbdcf6580	-0.101267815
4	0x3d86cd54	0.06582132
5	0x3d244193	0.0401016
6	0xbdc20a95	-0.094746746
7	0xbe09d71e	-0.13460967
8	0xbc1dc91c	-0.009630468
9	0x3ca40b0a	0.020024795
10	0x3c614fa7	0.013751901
11	0xbdfa57ef	-0.12223803
12	0xbc0a7c22	-0.008452447
13	0xbe2af23b	-0.16693966
14	0xbe033479	-0.12812985
15	0xbe318d6b	-0.17339103
16	0x3c57dbd8	0.013174973
17	0xbe57680d	-0.21035786
18	0xbb7da5be	-0.0038703526
19	0xbc42fe60	-0.011901468
20	0xbe4a765d	-0.19771715
21	0xbe15c9cf	-0.14627765
22	0x3d004f79	0.03132579
23	0x3c0474d8	0.008084498
24	0xbe00ced6	-0.12578902
25	0xbe216236	-0.15760121
26	0xbd4cd446	-0.050007127
27	0xbe142562	-0.14467385
28	0xbda19a89	-0.07890803
29	0xbe1ba035	-0.15197833
30	0xbe257b8a	-0.16160408
31	0xbe2fa16a	-0.17151418
32	0x3aa4df6c	0.0012578792
33	0xbd058f7e	-0.032607548
34	0xbdabcb4d	-0.08388386
35	0xbdc22576	-0.09479801
36	0xbe048ca6	-0.12944278
37	0xbd954d87	-0.07290178
38	0xbe66d91a	-0.22543755
39	0xbe021f9d	-0.12707372
40	0xbda8eedc	-0.08248684
41	0xbdd4c4ec	-0.10389122
42	0xbe3aa880	-0.1822834
43	0xbe8021ec	-0.2502588
44	0x3c8f81f6	0.017518025
45	0x3c7e3e46	0.015517777
46	0xbe3a27c8	-0.18179238
47	0xbe171157	-0.14752708
48	0xbc6ef2ca	-0.014584253
49	0xbc288e30	-0.010287806
50	0xbcc85562	-0.024454776
51	0xbdcae5cd	-0.09907112
52	0xbdd6a6d2	-0.10481037
53	0x3c1116b6	0.008855512
54	0x3c492478	0.012276761
55	0xbe1986d5	-0.1499284
56	0xbd826b8f	-0.063681714
57	0xbe61022c	-0.21973485
58	0x3d63b556	0.055592857
59	0xbd3c8c55	-0.04603227
60	0xbdc4eff0	-0.09616077
61	0xbdc6a541	-0.096994884
62	0xbd088d78	-0.03333804
63	0xbd9824e1	-0.07428909
64	0x3ca70514	0.020388164
65	0xbe03d9e2	-0.12876084
66	0xbd7fd5df	-0.062459823
67	0x3d068575	0.03284212
68	0xbe39b851	-0.18136717
69	0xbe439db9	-0.19103135
70	0xbde096ff	-0.109663
71	0xbbef2e03	-0.007299186
72	0xbd542af4	-0.051798776
73	0xbe3e771f	-0.18600129
74	0xbc841a3e	-0.016125795
75	0x3cd27ab5	0.025693277
76	0x3d2b9aa3	0.04189552
77	0x3c33dd9d	0.01097813
78	0xbdf94f12	-0.121732846
79	0xbdc57314	-0.0964109
80	0xbe540e44	-0.20708567
81	0xbd90b708	-0.070661604
82	0xbe23afbf	-0.1598501
83	0xbdfac990	-0.12245476
84	0xbde7df36	-0.11321871
85	0x3d64f111	0.05589396
86	0xbd48a991	-0.048989836
87	0xbdc82141	-0.09771968
88	0xbb73b03c	-0.0037183901
89	0xbe3c38dc	-0.18381065
90	0xbe36a015	-0.17834504
91	0x3c21db3a	0.009878928
92	0xbbf3930d	-0.0074333013
93	0xbe64cc02	-0.22343448
94	0xbe1ddb84	-0.1541577
95	0x3da51b9c	0.08061907
96	0x3c44df28	0.012016095
97	0xbde360c6	-0.111024424
98	0xbb314ca4	-0.0027053738
99	0xbd02261c	-0.031774625
100	0xbda95dcb	-0.08269843
101	0xbdba910b	-0.09109696
102	0xbde2f5fe	-0.110820755
103	0xbd0b8446	-0.034061693
104	0xbe14c41d	-0.14527936
105	0xbda92071	-0.08258141
106	0xbde297a4	-0.110640794
107	0xbd1624f6	-0.036656342
108	0xbdcad508	-0.09903914
109	0x3cad747a	0.021173704
110	0xbd22b08d	-0.039719153
111	0xbe16d57d	-0.14729877
112	0xbe3234d1	-0.1740296
113	0xbe0f8dd8	-0.14018953
114	0xbe115aff	-0.14194869
115	0xbdf5e4f7	-0.12006562
116	0xbe56c3f0	-0.20973182
117	0xbd80a1d6	-0.06280868
118	0xbd8ae449	-0.06781823
119	0xbaf329ea	-0.001855192
120	0x3d7ed992	0.06221921
121	0xbe5cd1d2	-0.21564415
122	0xbdf13b6c	-0.11778912
123	0xbdbeee17	-0.09322756
124	0xbe31271c	-0.17300075
125	0xbddf2ada	-0.10896845
126	0xbdbb5179	-0.09146399
127	0x3d03af72	0.03214974

conv1.convs.<drug___interacts___gene>.lin_r.weight f4 [128, 64]
0	0x3d0ce6aa	0.034399666
1	0x3d4960ef	0.04916471
2	0x3d6a0ec7	0.057143
3	0xbd6f7692	-0.058462687
4	0x3da6b9cd	0.081409074
5	0xbd114672	-0.035467573
6	0xbda495ff	-0.08036422
7	0x3da08245	0.07837347
8	0xbda6bbbe	-0.08141278
9	0xbc451d2d	-0.012030882
10	0x3da8caab	0.08241781
11	0x3d46aa44	0.04850222
12	0xbc0ca5cb	-0.00858445
13	0x3db7bc11	0.08971418
14	0xbdca3a66	-0.0987442
15	0x3d453324	0.048144475
16	0x3cd73a7f	0.02627301
17	0x3dfb5856	0.12272708
18	0x3d4411ba	0.047868468
19	0x3db8c7e9	0.09022505
20	0x3c3ae74c	0.011407685
21	0x3c7f9b40	0.015600979
22	0xbcb0e4ac	-0.021593414
23	0x3df97d76	0.12182133
24	0xbb79f3ae	-0.003813963
25	0xbcd5fc15	-0.026121179
26	0xbd4669e3	-0.048440825
27	0xbdbd77ed	-0.0925139
28	0x3d77e5c6	0.060521863
29	0x3d23b8cd	0.03997116
30	0xbb667353	-0.0035163953
31	0x3dbb2d41	0.09139491
32	0xbc822b0e	-0.01588967
33	0xbd276329	-0.04086605
34	0xbd01b0e4	-0.031662837
35	0xbbd00cee	-0.0063491976
36	0xbdaa584a	-0.08317621
37	0xbbc6d965	-0.006068396
38	0x3d26ad0c	0.040692374
39	0x3da5ef13	0.081022404
40	0xbc775497	-0.015095851
41	0xbb828a87	-0.003983799
42	0xbd0d7bd2	-0.034541912
43	0xbd703cc2	-0.058651693
44	0xbdda3bbe	-0.10655926
45	0xbcf7d701	-0.030253889
46	0xbd060906	-0.03272345
47	0x3d3b73a1	0.04576457
48	0xbd5f24e1	-0.05447853
49	0x3c2df983	0.01061857
50	0x3d21a4e8	0.039463907
51	0xbda5dff5	-0.08099357
52	0x3ca70cca	0.02039184
53	0x3bb7048f	0.00558526
54	0x3d266c48	0.04063061
55	0x3cb245e7	0.021761848
56	0xbcde4291	-0.02713135
57	0xbc89f21a	-0.016839076
58	0x3d916a04	0.07100299
59	0xbd8c06ae	-0.068372115
60	0x3d996a41	0.074909694
61	0x3c8264c1	0.015917184
62	0x3dda0d56	0.10647075
63	0xbce8f933	-0.02843914
64	0xbe0c6d54	-0.1371358
65	0x3d97d0d4	0.07412878
66	0xbcec4f85	-0.028846512
67	0xbd433f8e	-0.047668032
68	0x3e2d7f0a	0.16942993
69	0x3da1031a	0.0786192
70	0x3cbcfa72	0.02306864
71	0x3d850379	0.06494803
72	0x3c33c4dc	0.010972228
73	0x3d7a541b	0.061115365
74	0xbd94224d	-0.07233105
75	0x3ddce76d	0.107863285
76	0x3e0802f0	0.1328237
77	0x3c137556	0.009000143
78	0xbdbd5e18	-0.092464626
79	0xbe352719	-0.17690696
80	0xbd078ff7	-0.03309628
81	0xbdaaa13d	-0.08331535
82	0x3d9e851d	0.07740233
83	0xbbbfe3e2	-0.005856023
84	0x3d3aa8cb	0.04557113
85	0x3db94efa	0.09048267
86	0xbd4d28a7	-0.050087597
87	0x3cb644ee	0.022249665
88	0x3ca37f2a	0.019958097
89	0xbd0a2d11	-0.033734385
90	0x3b3468d9	0.0027528314
91	0x3ddcd0ea	0.10782035
92	0xbddd869d	-0.10816691
93	0xbd34be85	-0.044127006
94	0x3ded1d42	0.11577846
95	0xbd46efe9	-0.04856864
96	0xbd621a3a	-0.055200793
97	0x3c4a7825	0.012357746
98	0x3d2dfac6	0.042475484
99	0xbdc92a41	-0.098225124
100	0xbe15829a	-0.14600602
101	0xbcd34179	-0.025788056
102	0x3c37e3e8	0.011223771
103	0xbd3d85dd	-0.04627024
104	0xbe263971	-0.1623285
105	0x3d7d5e5e	0.061857574
106	0xbd4a5c4d	-0.04940443
107	0x3d2f6075	0.042816598
108	0x3e128093	0.1430686
109	0xbd936572	-0.071970835
110	0x3d2627fd	0.04056548
111	0x3d19714a	0.037461556
112	0x3d5cb616	0.05388459
113	0x3b9f433a	0.004860309
114	0xbc780f64	-0.015140388
115	0xbccebc52	-0.025236282
116	0xbdbc02d5	-0.09180228
117	0x3d23c7fe	0.03998565
118	0xbdc66cf0	-0.09688747
119	0xbc089126	-0.008335387
120	0xbcbec476	-0.02328704
121	0xbe146dea	-0.14495054
122	0xbd7f6b54	-0.062358215
123	0x3d47fb73	0.048823785
124	0x3dee9de9	0.11651213
125	0x3b3773c9	0.0027992597
126	0xbcd3b4e3	-0.02584309
127	0x3d815614	0.06315246
128	0x3d0abdb9	0.03387234
129	0xbd19cb3c	-0.037547335
130	0x3d31b2b1	0.043383304
131	0xbcbbda2f	-0.022931186
132	0x3e12b53d	0.1432695
133	0x3d4266f3	0.04746146
134	0xbca9630c	-0.020677112
135	0xbc76e889	-0.015070089
136	0x3d28e85a	0.041237213
137	0xbbb71676	-0.0055873943
138	0xbdb2d9ee	-0.08732973
139	0xbaedd901	-0.0018146337
140	0x3d72fdee	0.059324197
141	0xbcc5d82f	-0.024150936
142	0xbddda1da	-0.10821886
143	0xbd928321	-0.07153917
144	0x3dc23a19	0.094837375
145	0x3c600db2	0.01367514
146	0x3e06e687	0.13173877
147	0x3d9a7b6c	0.07543072
148	0x3d07f2de	0.0331906
149	0x3d6b7cdc	0.057492122
150	0x3dbf4b7f	0.093405716
151	0xbca0fbd2	-0.019651327
152	0x3d9ba25c	0.07599327
153	0x3d860756	0.06544368
154	0xbc2980af	-0.010345622
155	0x3c769775	0.015050759
156	0xbc1fc9d6	-0.009752711
157	0xbca891f8	-0.020577416
158	0xbcc320b0	-0.023819298
159	0xbce1a1b2	-0.027542923
160	0xbce32392	-0.027726922
161	0xbc667bdd	-0.014067617
162	0x3d4449a5	0.047921795
163	0xbdbd4346	-0.09241347
164	0x3d22e836	0.039772235
165	0xbcf9c269	-0.03048821
166	0x3c957a16	0.018246692
167	0xbdddb96b	-0.10826381
168	0x3b551372	0.003251281
169	0x3d1625be	0.036657088
170	0xbde26a88	-0.110554755
171	0xbda1fb41	-0.07909251
172	0xbc976d12	-0.018484626
173	0xbcfa5f10	-0.030562907
174	0xbd197cab	-0.03747241
175	0xbd925674	-0.07145396
176	0xbdcf7116	-0.10128991
177	0x3ca0c142	0.019623403
178	0xbd23355f	-0.03984582
179	0xbdb47aa6	-0.08812456
180	0xbd182d41	-0.037152532
181	0xbd24adb1	-0.040204708
182	0xbc172ade	-0.009226529
183	0x3d8cd093	0.0687572
184	0x3dd593f5	0.10428611
185	0xbd7bb86f	-0.061455186
186	0x3d366b18	0.044535726
187	0xbc68c397	-0.0142067885
188	0xbd698cb8	-0.057018965
189	0xbbed4c6e	-0.007241777
190	0xbc5fa4f5	-0.013650169
191	0x3c590817	0.013246558
192	0x3d78dd7b	0.060758095
193	0xbe3f6b45	-0.18693264
194	0x3d802ddf	0.06258749
195	0x3c875b33	0.01652298
196	0x3d540d07	0.051770236
197	0x3d358e08	0.044324905
198	0x3e245bf4	0.16050702
199	0xbd8ba9c3	-0.06819489
200	0x3cb17cf4	0.021666028
201	0x3c3c3c00	0.0114889145
202	0x3c6c2325	0.014412676
203	0xbdb27fbb	-0.08715769
204	0xbc611038	-0.013736777
205	0x3c5bac21	0.013407738
206	0x3cc6d288	0.024270311
207	0xbd929c5a	-0.07158728
208	0xbd542333	-0.05179138
209	0x3c39b18c	0.011333834
210	0x3e0edb15	0.1395076
211	0x3df30e29	0.11867935
212	0xbe09eece	-0.13470003
213	0xbc740f92	-0.01489629
214	0xbd3847be	-0.044990294
215	0xbcd2527b	-0.025674095
216	0x3d4c7754	0.049918488
217	0x3d20d203	0.039262783
218	0xbc860235	-0.016358474
219	0x3deae5dd	0.11469624
220	0xbde0ff79	-0.109862275
221	0xbd574839	-0.05255911
222	0xbbc0c98d	-0.0058834017
223	0x3cd7a81b	0.026325276
224	0x3c1478d9	0.009062015
225	0xbbda8f52	-0.006669917
226	0x3d020d39	0.03175089
227	0xbd10a073	-0.035309266
228	0xbcad7e88	-0.021178499
229	0xbda272fe	-0.07932089
230	0xbae7deb0	-0.0017690267
231	0xbd514dd5	-0.051099617
232	0xbd0b3767	-0.033988383
233	0xbd13944a	-0.03603009
234	0x3cdc89f2	0.026921246
235	0xbd2eff2a	-0.042723812
236	0xbaa6e009	-0.0012731563
237	0xbdf57436	-0.11985056
238	0x3d07435a	0.033023216
239	0xbca1fa12	-0.019772563
240	0x3d70759a	0.058705904
241	0xbda48573	-0.08033266
242	0xbc996461	-0.018724622
243	0xbdfd80ea	-0.12378104
244	0xbca66f99	-0.020316886
245	0xbd54354f	-0.05180865
246	0xbce61a9c	-0.02808886
247	0x3cd0f8ed	0.025509322
248	0x3db7075b	0.0893695
249	0x3ce89894	0.028393067
250	0x3dbd5ca7	0.09246188
251	0xba37f636	-0.0007017584
252	0x3cd4b75e	0.025966343
253	0xbd2a2bb0	-0.04154557
254	0x3d9e15fc	0.07719037
255	0x3cab5c12	0.020917926

conv1.convs.<gene___interacted_by___drug>.lin_l.weight f4 [128, 64]
0	0xbd5608e1	-0.05225456
1	0xbe2d2303	-0.16907887
2	0x3dcd96f9	0.100385614
3	0xbd1c6e30	-0.03819102
4	0x3d1f03c1	0.03882194
5	0xbde3d8a3	-0.111253045
6	0x3d801698	0.062543094
7	0xbde063c7	-0.10956531
8	0xbdb5a9d5	-0.088702835
9	0xbdd56200	-0.10419083
10	0x3ca2d699	0.019877719
11	0xbe00b2b6	-0.12568173
12	0x3d103967	0.035210993
13	0x3ceb55c6	0.028727423
14	0x3d9247e4	0.07142618
15	0xbdabde7d	-0.08392046
16	0x3c9bf04e	0.019035485
17	0xbdad6d5f	-0.084681265
18	0x3cb95526	0.02262361
19	0xbab9dfd7	-0.0014181089
20	0xbdc2791f	-0.09495758
21	0x3d19b072	0.037521787
22	0xbd15491a	-0.03644667
23	0xbd92ef12	-0.07174505
24	0x3da31a64	0.07964018
25	0x3ce41b41	0.027845027
26	0x3e15d803	0.14633183
27	0x3d2a7b70	0.041621625
28	0xbdc84357	-0.09778469
29	0x3bcde1a1	0.0062830006
30	0x3e62e66d	0.22158213
31	0x3e77e762	0.2420936
32	0x3deef57b	0.116679154
33	0xbe02b3a3	-0.12763838
34	0x3caeacfc	0.02132272
35	0x3d69a8ac	0.057045624
36	0x3e071e11	0.13195063
37	0xbc89c92e	-0.016819563
38	0x3d5ceada	0.05393491
39	0xbd94b7d2	-0.072616234
40	0x3cd31cd8	0.02577059
41	0xbd82eb52	-0.0639254
42	0x3d48bca4	0.049008027
43	0xbdabf9d5	-0.08397261
44	0xbe10885e	-0.1411452
45	0x3c1f4d7d	0.0097230645
46	0x3d67f96f	0.056634363
47	0xbd36a362	-0.044589408
48	0x3d4733ff	0.04863357
49	0xbd9f7bf7	-0.07787316
50	0xbc871dde	-0.016493734
51	0xbe1a3c23	-0.15062003
52	0xbd897017	-0.067108326
53	0x3d2487dd	0.04016863
54	0xbe2e9df8	-0.17052448
55	0xbb99dbc8	-0.0046953894
56	0x3da134ce	0.078714
57	0xbdf8cf28	-0.12148887
58	0x3d2d1812	0.042259283
59	0x3d7499f4	0.059717134
60	0x3e2b96e1	0.16756774
61	0x3ce1174c	0.02747693
62	0x3e224c64	0.15849453
63	0x3d2f9611	0.042867724
64	0xbae9d362	-0.0017839486
65	0xbd1537a5	-0.03643002
66	0x3da3f330	0.08005369
67	0x3dd6ed66	0.10494499
68	0x3c116dbc	0.00887626
69	0xbcabe21c	-0.02098184
70	0xbd880664	-0.06641844
71	0x3d2a4cfb	0.04157732
72	0x3cd304d9	0.025759147
73	0x3d02889c	0.031868562
74	0x3d1d29e4	0.03837003
75	0xbd6e007c	-0.05810593
76	0xbdc9e314	-0.09857765
77	0x3e0475c9	0.12935556
78	0xbac040c4	-0.0014667739
79	0x3d9103fe	0.070808396
80	0xbdb10f02	-0.08645441
81	0xbd889800	-0.06669617
82	0x3d5037e0	0.050834537
83	0x3d343602	0.04399682
84	0xbda06b64	-0.07832983
85	0xbc497948	-0.012296982
86	0x3ac598b0	0.0015075412
87	0xbd74ce67	-0.059767153
88	0xbd06dd0f	-0.03292566
89	0x3d42c787	0.047553565
90	0xbdc524ff	-0.09626197
91	0xbd81e8c7	-0.06343227
92	0xbc52b5f3	-0.012860763
93	0xbcdf6c2f	-0.027273266
94	0x3cd0c271	0.025483342
95	0x3d3bf425	0.04588713
96	0x3d2a95ac	0.041646644
97	0x3cce6c4c	0.025198124
98	0xbd5523c4	-0.052036062
99	0xbd526c6a	-0.051372923
100	0xbc8934d9	-0.016748833
101	0x3d017e4a	0.03161458
102	0x3e397986	0.18112764
103	0x3c072d9f	0.008250623
104	0x3d266018	0.040618986
105	0x3dc30bd6	0.09523742
106	0x3d74219a	0.059602357
107	0x3db836eb	0.0899485
108	0x3d893f25	0.06701497
109	0xbdb77402	-0.089576736
110	0x3d1f2e6b	0.038862627
111	0x3dc52f38	0.09628147
112	0xbb56adb2	-0.003275734
113	0x3cb4101d	0.02198034
114	0xbd81dc69	-0.06340868
115	0x3d06c7ab	0.032905262
116	0xbdeb7c32	-0.11498298
117	0x3c356562	0.011071535
118	0x3d3df41a	0.04637537
119	0x3bf797fa	0.007555959
120	0xbc8e1eef	-0.017348735
121	0xbdb086b1	-0.0861944
122	0xbc1348ca	-0.008989522
123	0xbd9f9e62	-0.07793881
124	0x3d76c506	0.06024649
125	0x3d81bba9	0.063346215
126	0x3d8b9de5	0.06817225
127	0xbc02caaa	-0.007982889
128	0xbab1b6c0	-0.0013558492
129	0xbd0f0c1c	-0.034923658
130	0xbbc5f7f8	-0.006041523
131	0x3da7d56e	0.08195005
132	0x3d85f1a3	0.06540229
133	0xbd17ca91	-0.037058417
134	0x3b331922	0.0027328213
135	0x3d55a09b	0.05215512
136	0x3e577574	0.21040899
137	0xba8cc578	-0.0010740003
138	0xbdeff019	-0.11715717
139	0x3d26b782	0.04070235
140	0xbcc433fc	-0.02395057
141	0x3e0d6036	0.13806233
142	0x3e0ac314	0.13550979
143	0xbe5760ee	-0.2103307
144	0xbd90fbbe	-0.07079266
145	0x3e16bbd5	0.1472009
146	0x3d83bb02	0.06432153
147	0x3e05ee31	0.13079144
148	0x3d01e573	0.03171296
149	0x3da6aa6a	0.08137973
150	0x3d72c682	0.059271343
151	0xbcbb5631	-0.022868248
152	0x3c5a1196	0.013309857
153	0x3dfb0a18	0.122577846
154	0xbc557332	-0.013027953
155	0xbdc2ae20	-0.09505868
156	0xbcfb0993	-0.030644214
157	0x3d19a9d7	0.037515488
158	0x3ceece80	0.029151201
159	0x3dda71e2	0.10666253
160	0xbcfaeb17	-0.030629678
161	0x3d97e608	0.07416922
162	0x3c978501	0.018496038
163	0x3e183bac	0.14866513
164	0xbe0a5e69	-0.13512577
165	0x3dd9464e	0.10609113
166	0xbd6a7641	-0.057241682
167	0x3b9bc5b0	0.004753791
168	0x3cc4ede1	0.02403921
169	0xbd44c63e	-0.04804062
170	0x3cb07847	0.021541728
171	0x3ce37987	0.02776791
172	0xbc97d05e	-0.018531974
173	0x3d8502e7	0.06494694
174	0xbde217e2	-0.110397115
175	0x3db1ce75	0.08681957
176	0x3c9010f0	0.017586201
177	0x3e0bad3a	0.136403
178	0xbdca5509	-0.098795004
179	0xbd0e57f8	-0.034751862
180	0xbe3152c7	-0.17316733
181	0xbd276333	-0.040866088
182	0xbdf2f0d2	-0.11862339
183	0xbdcdd760	-0.10050845
184	0xbdcb3136	-0.099214956
185	0xbdadd6ae	-0.084882125
186	0x3d9f0258	0.07764119
187	0x3daa3372	0.08310594
188	0xbe190fdd	-0.14947458
189	0xbc2ef62c	-0.010678809
190	0x3e155ba0	0.14585733
191	0xbd897f6d	-0.06713758
192	0xbd29a4d4	-0.041416958
193	0xbd140777	-0.03613993
194	0xbd8b7a91	-0.06810487
195	0xbbd97668	-0.0066364296
196	0xbda26024	-0.079284936
197	0xbc63ca08	-0.0139031485
198	0x3d8439a3	0.06456306
199	0xbd822f86	-0.063567206
200	0x3da25ad9	0.07927484
201	0x3e7a2bfa	0.24430838
202	0x3e1ac1a8	0.15112936
203	0xbe21bb87	-0.15794192
204	0xbde04089	-0.10949809
205	0x3e014a60	0.12626028
206	0x3d264bcc	0.04059963
207	0xbd5a979a	-0.053367235
208	0xbd498277	-0.049196687
209	0xbddf4fcf	-0.10903894
210	0x3cce6490	0.025194436
211	0xbdc6383b	-0.09678694
212	0xbd592c46	-0.053020738
213	0x3ca036df	0.019557415
214	0xbe09d9ec	-0.13462037
215	0x3d4a42a5	0.049379963
216	0xba3cdeba	-0.00072048197
217	0x3b4b0d0c	0.0030983118
218	0xbd7b3b27	-0.06133571
219	0xbde5337e	-0.11191462
220	0xbdd42017	-0.10357683
221	0x3da6835e	0.08130525
222	0xbdc188c2	-0.094499126
223	0x3d921f91	0.07134927
224	0xbcf7b4ae	-0.030237522
225	0xbd0fa813	-0.035072397
226	0x3dff3edf	0.124631636
227	0x3e19b4b0	0.15010333
228	0x3dbf7a52	0.093495026
229	0x3dd2d5fb	0.1029472
230	0xbb2a59af	-0.0025993397
231	0xbe641f4c	-0.22277564
232	0x3cc9a279	0.024613606
233	0x3d5f5b35	0.05453034
234	0x3bf8c360	0.00759165
235	0x3d14cd25	0.036328454
236	0xbd8b407f	-0.06799411
237	0xbd38c954	-0.045113876
238	0xbd8ec75d	-0.06971619
239	0xbe2ddd4f	-0.16978954
240	0xbad4eda0	-0.0016245134
241	0x3d1c43e6	0.03815069
242	0xbd4f1222	-0.050554402
243	0x3cab6f90	0.02092722
244	0x3d360d04	0.044446006
245	0x3df18b30	0.11794126
246	0xbd5696a8	-0.05238977
247	0xbcf7d5e0	-0.03025335
248	0xbe3433a2	-0.17597821
249	0x3cbc7e21	0.023009362
250	0x3d21ff0e	0.03954988
251	0xbcc65501	-0.024210455
252	0xbdb5edc0	-0.08883238
253	0xbd85e316	-0.06537454
254	0xbd598cd2	-0.053112812
255	0x3d5d4f50	0.054030716

conv1.convs.<gene___interacted_by___drug>.lin_l.bias f4 [128]
0	0x3ca795d8	0.020457193
1	0xbc1bb773	-0.009504187
2	0xbe2f9c90	-0.17149568
3	0xbcbd2d2a	-0.023092825
4	0xbda3916a	-0.0798672
5	0xbe3f0dc5	-0.18657596
6	0xbcd080b5	-0.025451997
7	0xbe264dcf	-0.16240619
8	0xbe32a3e9	-0.1744534
9	0xbe4f12ce	-0.20222017
10	0xbdfe2bd0	-0.124107
11	0xbd6112af	-0.05494946
12	0xbe32c740	-0.1745882
13	0xbe5512a8	-0.20807898
14	0xbe27a267	-0.16370545
15	0x3d18342a	0.037159123
16	0xbde1c07e	-0.11023043
17	0xbdfcfadb	-0.123525344
18	0xbe517b59	-0.2045721
19	0xbcb90ef7	-0.022590144
20	0x3c53a6f8	0.012918226
21	0xbd78ecd7	-0.060772743
22	0xbe43caf1	-0.19120385
23	0xbd365beb	-0.044521254
24	0xbc8f3c2f	-0.017484752
25	0xbd1fbf79	-0.039000962
26	0xbdf534e7	-0.11972981
27	0xbe4a3c50	-0.1974957
28	0xbe653bce	-0.22386095
29	0xbe52e40d	-0.20594807
30	0xbd642636	-0.055700503
31	0xbd97d7d3	-0.07414212
32	0xbe096050	-0.13415647
33	0xbe875989	-0.26435497
34	0xbd3eddd2	-0.046598263
35	0xbd809bd3	-0.06279721
36	0xbc90a214	-0.01765541
37	0xbdd8dc58	-0.10588902
38	0xbe58cedf	-0.21172665
39	0x3d5287b9	0.051398966
40	0xbe271448	-0.1631633
41	0xbd0ee8c0	-0.034889936
42	0xbe33903d	-0.17535491
43	0x3ce6d6da	0.028178621
44	0x3d4efc63	0.050533663
45	0xbe4909dc	-0.19632667
46	0xbe154134	-0.14575654
47	0xbd01b6be	-0.031668417
48	0x3c2c554e	0.010518385
49	0xbdfd2bb2	-0.1236185
50	0xbea207d5	-0.316466
51	0xbdb062cb	-0.08612593
52	0x3d7b3908	0.061333686
53	0xbe059fe2	-0.13049272
54	0xbe3046c9	-0.17214502
55	0xbe4ec57c	-0.20192522
56	0xbdb01c61	-0.08599163
57	0xbd46c54b	-0.048527997
58	0x3da7c02c	0.08190951
59	0xbcc9cc94	-0.024633683
60	0xbe3f08f8	-0.18655765
61	0xbdcff931	-0.10154951
62	0xbdded857	-0.10881107
63	0xbe0ea86a	-0.13931432
64	0xbd90022c	-0.07031664
65	0x3c7343f6	0.014847746
66	0xbe36d23f	-0.1785364
67	0xbdc643a3	-0.096808694
68	0xbe15ed6a	-0.14641348
69	0xbd2764d3	-0.040867638
70	0xbe2f2997	-0.17105709
71	0xbddfa587	-0.10920244
72	0xbe5516c1	-0.20809461
73	0xbe628495	-0.22120889
74	0xbe23687a	-0.15957823
75	0xbe371ed3	-0.17882852
76	0xbd39fef9	-0.045409176
77	0x3cf02dc9	0.029318707
78	0xbdcbe509	-0.09955794
79	0xbe32c92a	-0.1745955
80	0xbdf84ded	-0.12124238
81	0xbcdd953c	-0.0270487
82	0x3d8fcfb7	0.0702204
83	0xbe084a5f	-0.1330962
84	0x3cd2afaf	0.025718538
85	0xbcce098f	-0.025151042
86	0xbd768c71	-0.06019253
87	0x3c83555a	0.01603191
88	0xbd25e14c	-0.040498063
89	0xbd41e7f9	-0.047340367
90	0xbdba3c64	-0.0909355
91	0xbd4adf52	-0.04952938
92	0xbdce443d	-0.10071609
93	0xbe0ff85e	-0.14059588
94	0xbd504f51	-0.050856892
95	0xbd8954eb	-0.0670565
96	0x3d0698ae	0.03286045
97	0x3cf798bb	0.030224195
98	0x3cfbf31e	0.030755576
99	0xbdfc28f8	-0.12312502
100	0xbd4ffb28	-0.05077663
101	0xbe317efa	-0.17333594
102	0xbb6afb96	-0.0035855523
103	0xbdf64425	-0.12024716
104	0xbe5a9906	-0.21347436
105	0x3d0deffb	0.03465269
106	0xbe39c553	-0.1814168
107	0xbd2df16b	-0.042466562
108	0x3d394114	0.04522808
109	0xbe51fd2e	-0.20506737
110	0xbbaac82a	-0.0052118497
111	0xbddd342c	-0.108009666
112	0xbd9d10be	-0.07669209
113	0xbc973268	-0.018456653
114	0xbdc1a98a	-0.09456165
115	0xbdffeaf7	-0.12495988
116	0x3b7d6891	0.0038667063
117	0xbdc3a7f9	-0.095535226
118	0xbe4f302c	-0.2023322
119	0xbdc1e2bb	-0.094670735
120	0xbe2e5108	-0.17023098
121	0xbc8dc24f	-0.017304568
122	0xbe1a8fe4	-0.15093952
123	0xbdf359e2	-0.11882378
124	0x3d588e29	0.05286995
125	0xbd9ca0fc	-0.07647893
126	0xbe07bc2c	-0.13255376
127	0xbce3d18e	-0.027809884

conv1.convs.<gene___interacted_by___drug>.lin_r.weight f4 [128, 64]
0	0xbcf032b3	-0.02932105
1	0xbcce9609	-0.025218027
2	0x3bd73ec2	0.0065687606
3	0x3c57ee8e	0.013179434
4	0x3c8ed2e3	0.017434543
5	0xbd14cc2c	-0.036327526
6	0x3d07d645	0.033163328
7	0xbbad4a62	-0.005288408
8	0xbd5cde7e	-0.053923123
9	0xbd7ce849	-0.061744962
10	0x3c57851d	0.013154295
11	0x3c82df08	0.01597549
12	0x3da720b2	0.08160533
13	0xbd077f02	-0.03308011
14	0x3cb237c0	0.0217551
15	0xbd58db40	-0.052943468
16	0xbc7d8975	-0.015474667
17	0xbd887e20	-0.066646814
18	0xbbb75b45	-0.005595597
19	0x3d26d6aa	0.040732063
20	0x3d91632f	0.07098996
21	0x3dbdc281	0.09265614
22	0xbda2e014	-0.07952896
23	0x3d919ece	0.07110368
24	0x3d1f85a6	0.038945816
25	0xbce3a1a8	-0.027787045
26	0xbb05e39b	-0.0020429853
27	0x3d0eabd4	0.034831837
28	0x3dae8937	0.085222654
29	0xbd4b283e	-0.049598925
30	0xbcef2042	-0.029190186
31	0xbca48073	-0.02008078
32	0x3cdcc94e	0.026951458
33	0xbd4ef60b	-0.050527614
34	0x3d885f58	0.066588104
35	0x3d195873	0.037437867
36	0x3cdccba0	0.026952565
37	0x3ca0754d	0.019587183
38	0x3bb3ba96	0.0054848893
39	0x3bc91e80	0.006137669
40	0xbd5d995c	-0.054101333
41	0xbd32c1fd	-0.043642033
42	0x3dbf7114	0.0934774
43	0x3dd8e3ec	0.10590348
44	0xbb260bd5	-0.0025336642
45	0x3d54b652	0.051931687
46	0x3d97b6c2	0.07407905
47	0xbc7f4571	-0.015580521
48	0x3d6d1aa3	0.05788673
49	0xbdbea959	-0.09309644
50	0x3d3fbe3c	0.04681228
51	0xbd991c6a	-0.07476123
52	0xbdc8ba54	-0.09801164
53	0x3d9364b5	0.07196943
54	0x3d576acb	0.05259208
55	0xbd1977f5	-0.037467916
56	0xbc336df6	-0.01095151
57	0xbd8f2422	-0.06989314
58	0x3d0aa4b5	0.033848483
59	0x3b7a13e8	0.0038158838
60	0x3caaf62a	0.020869333
61	0x3d784158	0.06060919
62	0xbdcd1b0a	-0.10014923
63	0x3bdfee6c	0.006833842
64	0xbd26a778	-0.040687054
65	0x3e241eda	0.16027394
66	0x3e016851	0.1263745
67	0x3c8aee9b	0.01695948
68	0xbd89c60b	-0.06727227
69	0x3e0d6c26	0.13810787
70	0x3d3c5386	0.04597809
71	0xbc5c7608	-0.013455875
72	0x3ceb3090	0.02870968
73	0x3e043008	0.12908947
74	0xbdbf99a3	-0.09355476
75	0x3da38f12	0.07986273
76	0x3ded908e	0.11599837
77	0xbcd39346	-0.025827061
78	0xbd02fb13	-0.031977724
79	0xbd839042	-0.06423999
80	0xbc972d88	-0.018454328
81	0xbc8fa2c5	-0.01753367
82	0x3dbe6475	0.092965044
83	0x3e473803	0.1945496
84	0xbdcd3271	-0.100193866
85	0x3d2dc6d8	0.04242596
86	0x3df44978	0.119280756
87	0xbda8c727	-0.0824111
88	0x3d8b7145	0.06808714
89	0xbb73dcd4	-0.0037210481
90	0x3d6d0016	0.05786141
91	0xbc9deefe	-0.019279
92	0x3dcab99e	0.09898685
93	0x3c946b2a	0.018117506
94	0xbd47f3f5	-0.04881664
95	0x3da86a3d	0.08223388
96	0xbd482276	-0.04886099
97	0xbdfc06d5	-0.123059906
98	0xbcc120e6	-0.023575258
99	0x3c8dfaf3	0.017331576
100	0xbd1911f6	-0.037370645
101	0x3dc6f166	0.09714012
102	0x3dbad935	0.0912346
103	0x3d88fa8a	0.066884115
104	0x3d422f5d	0.04740845
105	0x3ce972eb	0.02849718
106	0xbce3dfdc	-0.027816705
107	0xbce9f462	-0.028558914
108	0x3de555a3	0.111979745
109	0x3ddebc02	0.108757034
110	0xbdae4c4b	-0.085106455
111	0x3dcf8a27	0.10133772
112	0xbc84369a	-0.016139317
113	0x3d478870	0.0487141
114	0x3e4c9666	0.19979247
115	0x3ce146fb	0.027499666
116	0xbd902084	-0.07037452
117	0x3d36e4f3	0.044651937
118	0xbd9c4abd	-0.07631443
119	0x3da8c89a	0.08241387
120	0x3d3687f2	0.04456324
121	0x3d9f92ac	0.07791647
122	0x3d202a37	0.03910276
123	0x3d95e11f	0.07318329
124	0x3dd811c5	0.10550264
125	0x3da39b2b	0.0798858
126	0xbda71902	-0.08159067
127	0xbd361736	-0.04445573
128	0xbdadf5c8	-0.08494145
129	0x3cb9980f	0.022655515
130	0xbc7addbf	-0.015311657
131	0xbb8b4740	-0.004250437
132	0x3d82434c	0.06360492
133	0xbcdadbdb	-0.026716163
134	0xbe0321a9	-0.12805809
135	0xbbf16784	-0.0073670764
136	0x3db2e2bc	0.087346524
137	0xbdaa56aa	-0.08317311
138	0x3dc1c633	0.094616316
139	0x3d8578d2	0.06517185
140	0x3b7a9f4f	0.0038241928
141	0xbd9ba098	-0.0759899
142	0x3d877c9b	0.066155635
143	0xbbf44d9b	-0.0074555404
144	0x3d083546	0.03325393
145	0xbd8e1395	-0.06937329
146	0xbd935532	-0.07193984
147	0xbc8782a5	-0.016541788
148	0xbd0d7cc1	-0.034542803
149	0xbc3a7c84	-0.011382226
150	0xbde7895d	-0.11305497
151	0x3cc59a28	0.024121359
152	0xbd19f0eb	-0.037583273
153	0xbd926493	-0.07148089
154	0xbd8570a2	-0.06515624
155	0xbc682856	-0.014169773
156	0xbd8c0dde	-0.068385825
157	0x3d38dfe5	0.045135397
158	0x3c4c679a	0.012475872
159	0xbdeb1dbe	-0.11480282
160	0xbd89e050	-0.06732237
161	0x3db59ccf	0.088677995
162	0xbe06da10	-0.13169122
163	0xbd974330	-0.07385862
164	0xbda3b9a2	-0.07994391
165	0xbd46fa0a	-0.0485783
166	0x3d298618	0.041387647
167	0xbc819d65	-0.015822122
168	0xbc4b7cb6	-0.01241987
169	0xbd6f00f9	-0.058350537
170	0xbd10a303	-0.03531171
171	0x3dbdf135	0.09274522
172	0x3da8b2a6	0.082371995
173	0x3d90f08c	0.07077131
174	0x3dbb12d8	0.091344535
175	0xbcacbfb6	-0.021087509
176	0xbb4eb584	-0.0031541297
177	0xbd321b15	-0.04348286
178	0xbcf744dd	-0.030184204
179	0xbd4f7c39	-0.050655577
180	0x3c9d01e8	0.019165948
181	0xbd398015	-0.045288164
182	0x3b325292	0.002720986
183	0xb9d0f5f0	-0.0003985609
184	0x3ca03af0	0.019559354
185	0x3d913a56	0.07091205
186	0xbce93d25	-0.028471539
187	0x3d85b51f	0.06528687
188	0x3d5940d9	0.05304036
189	0x3905d920	0.00012764754
190	0xbdc5c1b0	-0.096560836
191	0xbd6e9026	-0.05824294
192	0xbdc7f0db	-0.097627364
193	0xbcf336d9	-0.02968924
194	0x3d967583	0.07346632
195	0x3dcb0c28	0.09914428
196	0x3dfb3176	0.12265293
197	0xbce8408e	-0.028351095
198	0xbdc6cae3	-0.09706666
199	0xbd8750e8	-0.066072285
200	0xbbcc5a7b	-0.006236372
201	0x3d904fee	0.070464954
202	0x3c8cc040	0.017181516
203	0xbccde559	-0.025133776
204	0xbd8328d6	-0.06404273
205	0x3ce2d869	0.027691083
206	0xbd638d94	-0.05555494
207	0xbc65eb52	-0.0140331555
208	0x3db4b776	0.08824055
209	0xbd2a774b	-0.041617673
210	0xbcc3f972	-0.023922656
211	0xbbf8ef31	-0.007596873
212	0x3d7002c8	0.058596402
213	0x3d026224	0.031831875
214	0x3d3124ef	0.043248113
215	0x3d2a5a9f	0.04159033
216	0xbca196c6	-0.019725215
217	0x3db1b214	0.08676544
218	0x3cb05fd6	0.021530073
219	0xbb9cb64c	-0.0047824737
220	0x3cf3e0f1	0.029770346
221	0x3c22993c	0.009924229
222	0xbd8be13d	-0.0683007
223	0xbce8da06	-0.028424274
224	0x3dac2c16	0.08406846
225	0xbb9badf4	-0.0047509614
226	0xbc833c98	-0.016020104
227	0xbb1ee860	-0.0024247393
228	0xbd1674b3	-0.036732387
229	0xbd1800f1	-0.037110273
230	0x3bf908e5	0.0075999373
231	0xbc0d515b	-0.008625354
232	0xbd6722ce	-0.056429677
233	0x3d8299b1	0.063769706
234	0xbc616ad9	-0.013758385
235	0xbdcb5f06	-0.09930234
236	0xbde5a17d	-0.11212442
237	0x3d5335f8	0.05156514
238	0xbcc6151e	-0.024179991
239	0xbd519947	-0.051171567
240	0xbdab509f	-0.08364987
241	0xbd2a95b2	-0.041646667
242	0xbda35cc0	-0.07976675
243	0xbd07ee38	-0.033186167
244	0xbd0ad90e	-0.033898406
245	0xbcffadd5	-0.03121082
246	0xbd158fd5	-0.036514122
247	0x3d05c76f	0.032660898
248	0x3d4dfc03	0.050289165
249	0xbcab419f	-0.020905314
250	0xbd78cb7e	-0.06074094
251	0xbc98333e	-0.018579122
252	0x3bae19fc	0.005313156
253	0xbc8fed38	-0.01756917
254	0x3d6467cc	0.05576305
255	0xbd915081	-0.07095433

conv2.convs.<drug___interacts___gene>.lin_l.weight f4 [64, 128]
0	0xbd693dc9	-0.05694369
1	0x3ce9ad04	0.028524883
2	0x3d8cecf3	0.06881132
3	0x3d3949a7	0.045236256
4	0x3c92eb8a	0.01793458
5	0xbd9aa10b	-0.07550248
6	0xbd5cdfab	-0.053924244
7	0x3dc65082	0.096833244
8	0x3da99ee3	0.08282258
9	0x3d1f7521	0.038930062
10	0xbc836562	-0.016039554
11	0xbc9121c7	-0.017716302
12	0xbd1d9173	-0.03846879
13	0xbc28d4f2	-0.010304676
14	0x3d71ed72	0.059064336
15	0xbb55d7a0	-0.0032629743
16	0xbc2f2b07	-0.010691411
17	0x3cab64ca	0.020922083
18	0xbd430b1e	-0.047618024
19	0xbb3f05a6	-0.0029147654
20	0x3d08e2e1	0.033419494
21	0x3d9a298d	0.075274564
22	0xbdb6be00	-0.089229584
23	0x3cf131c0	0.029442668
24	0xbcab36ef	-0.020900218
25	0xbd938e8a	-0.072049215
26	0xbc8dd62b	-0.017314037
27	0x3d726a3e	0.05918335
28	0x3d613d2d	0.054989982
29	0x3daa4dfa	0.08315654
30	0x3cc3e150	0.023911148
31	0xbbada188	-0.005298797
32	0x3d471299	0.04860172
33	0xbc0a3c0e	-0.00843717
34	0xbd16e81c	-0.03684245
35	0x3d38c365	0.045108218
36	0x3d8113b6	0.06302588
37	0xbc8fa744	-0.017535813
38	0xbd020bd6	-0.03174957
39	0xbc88695e	-0.016651805
40	0xbd973003	-0.073822044
41	0x3cc4c3ba	0.024019111
42	0x3c1805a0	0.009278685
43	0x3dc002b2	0.09375514
44	0x3d8f9fca	0.07012899
45	0xbd90aa18	-0.07063693
46	0x3cc2c5d1	0.023775967
47	0xbc2905f2	-0.010316359
48	0xbd71b7e9	-0.05901328
49	0xba016a0d	-0.0004936762
50	0xbd8d6aea	-0.06905158
51	0xbc288396	-0.010285279
52	0xbb0bc815	-0.0021328975
53	0xbdb92448	-0.09040123
54	0x3d76261e	0.060094945
55	0xbbf0c182	-0.0073472867
56	0x3d43a504	0.047764793
57	0xbd43d7f0	-0.047813356
58	0xbd51c1d8	-0.051210254
59	0x3c79e275	0.0152517455
60	0xbd976ffd	-0.07394407
61	0x3d674f75	0.05647226
62	0x3c88f9c6	0.016720664
63	0x3dac4488	0.08411509
64	0x3c8cbcd0	0.017179877
65	0x3d7da477	0.061924424
66	0x3d8473d6	0.064674065
67	0xbda5f4cc	-0.08103332
68	0xbc829678	-0.01594089
69	0xbd5314ce	-0.051533513
70	0xbc3012c6	-0.010746663
71	0x3d829e22	0.06377818
72	0xbd9477be	-0.072494015
73	0x3d37b0ad	0.044846226
74	0x3d990198	0.07471007
75	0xbd7096d1	-0.05873758
76	0xbcfeddf7	-0.0311117
77	0x3c44ab5a	0.012003744
78	0x3d8665bd	0.06562374
79	0x3ce6ddac	0.028181873
80	0x3d9c7dc9	0.07641179
81	0xbbdbc2c6	-0.0067065684
82	0x3d6a2897	0.057167616
83	0xbd92b839	-0.07164044
84	0x3db6b7c2	0.08921768
85	0x3c0c31af	0.008556767
86	0x3caf2834	0.021381475
87	0x3ce23b63	0.027616208
88	0x3d3992b2	0.045305915
89	0x3d00d054	0.031448677
90	0x3dbd95aa	0.09257062
91	0x3da35926	0.07975988
92	0x3db1d7fa	0.086837724
93	0xbd82e68b	-0.06391629
94	0x3d9a5d4c	0.07537326
95	0x3d93c4a7	0.07215243
96	0x3cb9877b	0.02264761
97	0xbcbf8e85	-0.023383388
98	0xbd717d8a	-0.058957614
99	0xbd9ae4dc	-0.07563183
100	0xbda3532f	-0.079748504
101	0xbd932ab8	-0.07185882
102	0x3d914bad	0.07094512
103	0xbd816cf8	-0.06319612
104	0x3c9b4151	0.018952044
105	0x3d493f38	0.049132556
106	0x3db03c6d	0.08605275
107	0xbd13346e	-0.035938673
108	0xbbef576b	-0.007304122
109	0x3cc6a723	0.024249619
110	0xbd185047	-0.037185933
111	0xbda03e2f	-0.078243606
112	0xbc562071	-0.013069258
113	0xbd9ce229	-0.07660324
114	0xbc9e8df8	-0.019354805
115	0x3d30568a	0.04305128
116	0xbd912811	-0.0708772
117	0x3daf700d	0.08566294
118	0xbc10baa7	-0.008833564
119	0xbcc8243a	-0.024431337
120	0x3d5b0f27	0.053481247
121	0x3d825b97	0.063651256
122	0x3cb447b7	0.022006853
123	0x3da7e421	0.08197809
124	0x3d555b74	0.05208917
125	0xbc0a7f20	-0.0084531605
126	0x3cf0043c	0.029298894
127	0x3d97dc1c	0.074150294
128	0xbdb047a1	-0.08607412
129	0x3d90487a	0.07045074
130	0xbcf1d215	-0.02951912
131	0xbd541ded	-0.051786352
132	0x3c6feb4e	0.014643503
133	0x3d499363	0.049212825
134	0xbd132565	-0.035924334
135	0xbdad7392	-0.08469309
136	0xbdaec99c	-0.08534548
137	0xbd546f25	-0.05186381
138	0xbc255312	-0.010090606
139	0x3d8820c9	0.06646878
140	0xbd021477	-0.031757798
141	0xbd06eba7	-0.03293958
142	0xbdb1df51	-0.08685172
143	0xbd58c286	-0.052919887
144	0x3cdf96da	0.027293611
145	0x3ce8d8d7	0.02842371
146	0x3db83883	0.08995154
147	0xbd85aa07	-0.06526571
148	0x3d7db06d	0.06193583
149	0x3d9cb7a9	0.07652218
150	0x3bf93bb4	0.007605994
151	0x3d2489aa	0.04017035
152	0xbd7acf0e	-0.06123262
153	0x3d2dabd5	0.0424002
154	0x3d6e086d	0.058113504
155	0xbd92aa98	-0.071614444
156	0xbd3d8eca	-0.046278752
157	0x3d4fae78	0.050703496
158	0xbddd3cf6	-0.10802643
159	0xbd418c24	-0.04725279
160	0x3d84cbaf	0.06484162
161	0xbc9b72a1	-0.018975558
162	0xbd08d0dc	-0.03340231
163	0x3d7796ed	0.06044667
164	0xbca40024	-0.020019598
165	0x3dba5948	0.0909906
166	0xbbb1b15f	-0.0054227556
167	0xbd25046e	-0.040287428
168	0xbae61f82	-0.0017556997
169	0xbd72beba	-0.059263922
170	0x3b5e0773	0.0033878952
171	0x3dba2539	0.09089131
172	0x3c372fe0	0.011180848
173	0xbdc55b11	-0.0963651
174	0x3d8f387c	0.069931954
175	0xbc99808b	-0.018738052
176	0xbdabb5cb	-0.08384284
177	0x3d1887f2	0.037239023
178	0xbdb196b1	-0.0867132
179	0x3be10b9b	0.0068678386
180	0x3d358572	0.044316716
181	0x3d80171a	0.06254406
182	0xbcf21f7e	-0.029556032
183	0x3c81c89f	0.015842734
184	0x3d730155	0.059327442
185	0xbddff95f	-0.10936236
186	0x3cdae3b4	0.026719905
187	0xbd2fa5d5	-0.04288276
188	0xbd6d26c2	-0.05789829
189	0xbc70d0fd	-0.014698264
190	0xbc8e34ad	-0.017359102
191	0x3d21a650	0.03946525
192	0xbd8d1e1e	-0.0689051
193	0xbd4b55e7	-0.04964247
194	0xbd00583a	-0.03133414
195	0xbd79ba49	-0.06096867
196	0x3d485984	0.048913494
197	0xbc4fef29	-0.012691298
198	0x3c778f53	0.015109855
199	0x3c80b23f	0.015709994
200	0xbdadb942	-0.08482601
201	0xbd692f8a	-0.056930102
202	0x3d7b76e5	0.061392684
203	0x3c4eebda	0.012629474
204	0xbdd01276	-0.10159771
205	0xbc28a76d	-0.010293824
206	0x3dc6dc9b	0.09710046
207	0x3cc5b821	0.024135651
208	0xbd5f1c29	-0.054470215
209	0xbd972c76	-0.07381527
210	0xbdcfa763	-0.10139348
211	0x3b5e981a	0.0033965171
212	0xbd0d390c	-0.034478232
213	0xbdd32f7e	-0.10311793
214	0x3db58b6a	0.08864482
215	0xbd5edb1e	-0.054408185
216	0x3da5c2c1	0.08093787
217	0xbdd6ca6e	-0.10487829
218	0xbd93857c	-0.072031945
219	0x3d60a1b8	0.054841727
220	0xbd168abc	-0.0367534
221	0xbd99d355	-0.075110115
222	0x3d033386	0.03203156
223	0x3975c51d	0.00023438451
224	0x3c204ddf	0.009784191
225	0x3cdcff0f	0.02697709
226	0x3de4695c	0.11152908
227	0x3c2d6088	0.010582097
228	0x3cb26768	0.021777824
229	0x3c9f5d4e	0.01945367
230	0x3d5b1dd1	0.053495232
231	0xbc4d55ad	-0.012532634
232	0x3d80e44d	0.06293545
233	0x3bae947c	0.0053277593
234	0xbcae78b4	-0.02129779
235	0x3d99675e	0.07490419
236	0x3d91b7a2	0.07115103
237	0xbc52ca13	-0.012865561
238	0x3bab5395	0.0052284696
239	0x3d919178	0.07107824
240	0xbc14cfb5	-0.009082724
241	0xbda173fa	-0.07883449
242	0xba65ee47	-0.0008771163
243	0x3cff7f7d	0.03118872
244	0x3d453745	0.048148412
245	0x3dbfa9d3	0.09358563
246	0x3bd5bb41	0.0065225665
247	0x3d8795e2	0.06620385
248	0x3cfa017e	0.03051829
249	0xbd02ba98	-0.03191623
250	0xbb22e91d	-0.0024858185
251	0x3c8531e1	0.016259136
252	0xbd59d56e	-0.053182058
253	0x3d6ab4c2	0.05730129
254	0x3da7d0cf	0.08194124
255	0xbcdba470	-0.026811808

conv2.convs.<drug___interacts___gene>.lin_l.bias f4 [64]
0	0x3d41be95	0.047300894
1	0xbd7b943c	-0.061420664
2	0xbd73f266	-0.05955734
3	0xbcba8677	-0.022769196
4	0xbd129ed6	-0.03579601
5	0xbc2793e0	-0.010228127
6	0x3cbfcb42	0.02341235
7	0x3bb4a734	0.005513096
8	0x3d01c3c1	0.031680826
9	0x3ab73bc4	0.0013979604
10	0x3b2c3164	0.0026274556
11	0x3db65bd9	0.08904237
12	0xbc70d115	-0.014698287
13	0xbd849fc6	-0.06475787
14	0x3d7200ca	0.059082784
15	0x3d10c53b	0.035344344
16	0xbd6d4b04	-0.05793287
17	0x3b5fceac	0.0034150286
18	0x3d6d7a00	0.057977676
19	0x3c97cc8f	0.018530158
20	0xbce5cbf3	-0.028051352
21	0xbcd028e4	-0.025410123
22	0x3b19f853	0.002349396
23	0xbcab3a06	-0.020901691
24	0x3db467af	0.088088386
25	0xbd9c3860	-0.0762794
26	0xbdb96492	-0.090523854
27	0xba8aef1e	-0.0010599827
28	0xbd595c39	-0.053066466
29	0x3d56e5a5	0.0524651
30	0xbda11b6f	-0.07866561
31	0xbdcabbba	-0.09899087
32	0x3d9e3891	0.07725633
33	0x3d848cfb	0.064722024
34	0xbd4cb886	-0.049980663
35	0xbc90eacc	-0.017690085
36	0x3c1cc6ab	0.0095688505
37	0x3d90d733	0.07072296
38	0xbd32269a	-0.043493845
39	0xbd658793	-0.056037497
40	0xbd173424	-0.03691496
41	0xba25097e	-0.0006295665
42	0xbdbce43f	-0.09223222
43	0x3c850503	0.016237741
44	0xbc408806	-0.0117511805
45	0xbc4a3c5e	-0.012343494
46	0xbd29ca31	-0.04145259
47	0x3d315237	0.043291297
48	0xbc91dc91	-0.01780537
49	0x3d3ead4e	0.046551995
50	0xbcc4e74a	-0.024036068
51	0x3d6c6fb5	0.05772372
52	0xbda25d3b	-0.079279386
53	0x3b4cf951	0.0031276534
54	0xbda2b05e	-0.079437956
55	0xbb1eec36	-0.002424968
56	0x3d19a01f	0.03750622
57	0xbd26e49b	-0.04074536
58	0x3d2d5d9e	0.04232561
59	0x3c0ce544	0.008599583
60	0x3dc1b0eb	0.094575725
61	0x3d2482fd	0.040163983
62	0xbd5c76d0	-0.053824246
63	0xbd3bbe0b	-0.045835536

conv2.convs.<drug___interacts___gene>.lin_r.weight f4 [64, 128]
0	0xbd77bbe8	-0.060481936
1	0x3cd413c8	0.025888339
2	0xbdeafa13	-0.11473479
3	0xbd47ea15	-0.048807222
4	0xbcc0abda	-0.023519445
5	0xbd3d0133	-0.04614372
6	0xbd62d1d1	-0.055375878
7	0x3d81032e	0.062994346
8	0x3d7f81b8	0.06237957
9	0xbc737bf3	-0.014861095
10	0xbd3cb83e	-0.046074145
11	0xbdef7051	-0.116913445
12	0xbda5cef7	-0.08096116
13	0x3d569a4a	0.052393235
14	0x3d3fbc91	0.04681069
15	0xbda769fb	-0.08174511
16	0xbbc539dd	-0.0060188607
17	0x3d3b61c0	0.04574752
18	0xbd57f4d9	-0.05272374
19	0x3b7c454c	0.0038493453
20	0xbd72f20b	-0.05931286
21	0xbcafb0ac	-0.021446548
22	0xbd843d25	-0.06456975
23	0x3c83f7c1	0.01610935
24	0xbde6eb5e	-0.112753615
25	0xbdfb3301	-0.122655876
26	0x3d173282	0.036913402
27	0xbcec5868	-0.02885075
28	0x3d28d51f	0.041218873
29	0xbd5a3c51	-0.05328018
30	0x3a93ae4b	0.0011267153
31	0xbe0a4b64	-0.13505322
32	0xbc3bce76	-0.011462798
33	0x3d1430b2	0.036179252
34	0xbd4900f4	-0.049073175
35	0x3cb20354	0.021730103
36	0xbcbc830b	-0.023011705
37	0x3c87c48b	0.016573211
38	0xbc50a123	-0.0127337305
39	0xbdff12b7	-0.124547414
40	0xbd164667	-0.036688235
41	0xbd0cbb27	-0.03435817
42	0xbc30e0a7	-0.010795749
43	0xbc9c1105	-0.019051084
44	0xbdb4f72e	-0.08836208
45	0x3bfdc801	0.0077447896
46	0xbcb23122	-0.021751944
47	0xbd188c25	-0.037243027
48	0xbcfbd996	-0.030743401
49	0xbdb38fce	-0.08767663
50	0x3d10b274	0.035326436
51	0xbddbfecd	-0.10741959
52	0xbdd51a6a	-0.10405429
53	0xbddcfba5	-0.10790185
54	0xbdb1fa1e	-0.08690284
55	0xbd58286b	-0.05277292
56	0xbdba4618	-0.090954006
57	0x3c8ff8c7	0.017574681
58	0xbacd4e5c	-0.0015663612
59	0xbd884756	-0.06654231
60	0xbde1f253	-0.11032548
61	0xbd607587	-0.054799583
62	0x3d4abc66	0.049496077
63	0xbdeaf6a7	-0.114728265
64	0xbd5833ff	-0.052783962
65	0x3d35114e	0.044205956
66	0xbdc5b9c2	-0.09654571
67	0x3c45fc6e	0.01208411
68	0x3b16d67e	0.002301603
69	0xbd2a899f	-0.041635152
70	0xbdacced6	-0.08437888
71	0xbd80f12b	-0.06295999
72	0xbd7d2e5a	-0.061811782
73	0xbdc4b6ac	-0.096051544
74	0xbd69dc94	-0.057095125
75	0x3d2f66ff	0.042822834
76	0xbde57e13	-0.112056874
77	0xbd587b58	-0.052852005
78	0xbd97cb6c	-0.074118465
79	0xbd2c2ff6	-0.042037927
80	0x3d06640e	0.032810263
81	0xbc9117f6	-0.01771162
82	0xbdc231e6	-0.094821736
83	0xbd86a826	-0.065750405
84	0xbd83842a	-0.06421693
85	0xbc89ff93	-0.0168455
86	0xbc973865	-0.018459508
87	0xbe0313bf	-0.12800501
88	0xbdb69ee8	-0.08917028
89	0xbda21b1e	-0.079153284
90	0xbd3568a1	-0.044289235
91	0x3d482f7b	0.048873406
92	0xbca87f2f	-0.020568458
93	0x3c817363	0.015802091
94	0x3c123490	0.008923665
95	0xbd826571	-0.06367005
96	0xbcd24c78	-0.025671229
97	0xbd621da8	-0.055204064
98	0x3d344aa8	0.04401651
99	0xbd5920a2	-0.053009637
100	0xbcffe76d	-0.031238282
101	0xbd70e9af	-0.058816608
102	0x3d7cff28	0.061766773
103	0xbd3058b9	-0.043053363
104	0xbdf7d5e4	-0.12101343
105	0xbd2d4560	-0.04230249
106	0x3d3bba90	0.045832217
107	0xbdcec81d	-0.10096762
108	0xbd34b3ce	-0.044116788
109	0x3cee114d	0.029060984
110	0xbdec2caf	-0.1153196
111	0xbd494214	-0.049135283
112	0x3c4b16ad	0.012395543
113	0xbccc5063	-0.024940675
114	0xbd0e9f22	-0.03481973
115	0x3c9c7cd2	0.019102488
116	0xbd460138	-0.048341006
117	0xbd588b3f	-0.05286717
118	0xbb0f646c	-0.0021879924
119	0xbcdc77b1	-0.026912542
120	0x3cf038f4	0.029324032
121	0xbdc87b76	-0.09789173
122	0xbdea3f38	-0.11437839
123	0xbdaa3d62	-0.08312489
124	0xbdfdfac6	-0.12401347
125	0x3cc10ce5	0.023565719
126	0xbdb21629	-0.08695633
127	0xbd566b86	-0.052348636
128	0x3d56ee9c	0.05247365
129	0xbb97ac5f	-0.0046287025
130	0xbdb91d36	-0.09038775
131	0x3d3a5184	0.045487896
132	0xbcac1841	-0.021007659
133	0xbd061b09	-0.032740626
134	0xbd056b53	-0.032573055
135	0xbd8ff270	-0.07028663
136	0xbc034432	-0.0080118645
137	0xbdee509b	-0.11636468
138	0xbd21a776	-0.039466344
139	0xbdb8f482	-0.09031011
140	0xbd5d4c0f	-0.054027613
141	0xbdcfd052	-0.10147156
142	0x3c0fcb68	0.008776523
143	0xbd6f6185	-0.05844261
144	0xbca1a0bb	-0.019729963
145	0xbce7fcb4	-0.02831874
146	0xbdf38cc9	-0.11892087
147	0xbd2a9869	-0.041649256
148	0x3b8bc6e2	0.004265652
149	0xbd168c14	-0.036754683
150	0xbc50f651	-0.012754039
151	0xbde83ee0	-0.113401175
152	0xbe08b4d2	-0.13350227
153	0xbd10debe	-0.035368674
154	0x3c38b2d3	0.011273104
155	0xbcdc3ab0	-0.026883453
156	0x3cc4370b	0.023952028
157	0xbdb4c171	-0.088259585
158	0xbd15c993	-0.03656919
159	0xbda990be	-0.082795605
160	0xbcb6c1bc	-0.022309177
161	0xbd00fce4	-0.031491175
162	0x3d1c7a37	0.03820249
163	0xbd11fff2	-0.03564448
164	0xbd7d3f5c	-0.061828002
165	0xbd3b2d95	-0.045697767
166	0xbdfefd53	-0.124506615
167	0xbdf0da5c	-0.11760399
168	0xbcb54392	-0.022126947
169	0x3c7c4c96	0.015399119
170	0xbe1d503a	-0.15362635
171	0x3c3c7936	0.011503508
172	0xbe2b5710	-0.1673243
173	0xbdd54e23	-0.10415294
174	0xbdf8998c	-0.12138662
175	0x3d3d770d	0.046256114
176	0x3ccd865c	0.025088482
177	0xbd69c42f	-0.05707186
178	0xbd7b9f6b	-0.06143133
179	0x3d158101	0.03649998
180	0xbde1e967	-0.11030846
181	0xbccf7dd9	-0.025328564
182	0x3d47f0d2	0.04881365
183	0x3d343248	0.043993264
184	0xbc413614	-0.011792678
185	0xbde1456e	-0.10999571
186	0xbdddd9ea	-0.108325794
187	0xbd888944	-0.06666806
188	0xbdb70bb2	-0.089377776
189	0xbc167268	-0.00918255
190	0xbd87a96d	-0.06624112
191	0xbd3d34ff	-0.04619312
192	0xbcf9f91e	-0.030514296
193	0xbdeacb1a	-0.1146452
194	0xbd5124fb	-0.051060658
195	0xbe0f60c2	-0.14001754
196	0xbc7d5b08	-0.015463598
197	0x3d2fa6a5	0.042883534
198	0xbdeab8c2	-0.11461021
199	0x3cf32514	0.029680766
200	0xbd278900	-0.040902138
201	0xbd8e60c2	-0.06952049
202	0xbdee0350	-0.116217256
203	0x3c80e76c	0.01573535
204	0xbdf157d3	-0.11784329
205	0xbe15f11b	-0.14642756
206	0x3c60dbd1	0.013724283
207	0xbe0aa621	-0.13539936
208	0xbdd58ec0	-0.10427618
209	0xbcb1cda3	-0.0217045
210	0xbd99d7e4	-0.07511881
211	0xbd73738b	-0.059436362
212	0x3c02816f	0.00796543
213	0xbdc04520	-0.093881845
214	0xb9f10905	-0.00045973822
215	0xbb9089f2	-0.0044109756
216	0xbd281059	-0.041031215
217	0x3c766e38	0.015040927
218	0xbd4dbf41	-0.050231222
219	0xbdc3c3c5	-0.095588244
220	0xbd098090	-0.033569872
221	0x3d173b7c	0.036921963
222	0xbc8a185b	-0.016857317
223	0xbd389655	-0.045065243
224	0xbd7fbea5	-0.062437672
225	0xbdf54b4e	-0.11977254
226	0x3c6b270d	0.014352572
227	0xbd0ce6a0	-0.03439963
228	0xbd981ed4	-0.07427755
229	0xbdc5227d	-0.09625719
230	0xbd6cacc7	-0.05778196
231	0x3955ab52	0.00020377085
232	0x3d12706d	0.03575175
233	0xbc52b87c	-0.012861367
234	0xbb4cf926	-0.0031276434
235	0xbccab16f	-0.02474281
236	0xbe0b7ec4	-0.13622576
237	0xbca59290	-0.020211488
238	0xbdd1b1fe	-0.102390274
239	0x3ca7d926	0.020489287
240	0x3bdbb4d1	0.0067049046
241	0x3d6adc25	0.057338852
242	0xbdd400f8	-0.10351747
243	0xbda2e53e	-0.07953881
244	0xbd1c4c46	-0.038158678
245	0xbdaef1a8	-0.08542186
246	0xbdc12b04	-0.09432033
247	0xbd16616a	-0.036713995
248	0x3c034f00	0.008014441
249	0xbdcd13ef	-0.10013568
250	0x3d245f8b	0.04013018
251	0xbd9c33cd	-0.07627068
252	0xbadebee8	-0.001699415
253	0xbda5a972	-0.0808896
254	0x3caf2e44	0.021384366
255	0xbbc788c8	-0.0060893036
