best_link_prediction_model.pth (torch, 2250 bytes, 1 tensors)

linear.weight f4 [1, 128]
00000000: c806 c0bc 9292 f23d 098a 063e 48f5 9f3e
00000010: 4952 c4bd 0dfc b7bc 053e f9bb e9e6 8bbe
00000020: 65cb 0b3e 1f9c 9cbe 88cd abbe a3a3 0a3e
00000030: 954d a5be 464c 633c 3bc8 d43e 615e 02bf
00000040: 70b8 06be fc64 d03d cf8a aebe a0e3 4c3e
00000050: 0861 70be c2e2 e0be 3de9 373e cae7 793e
00000060: f07f 51be f717 dc3e 7d4d 37be 800a 1d3f
00000070: aac9 92be 49f4 3e3e 3279 823d 6dfa 413d
00000080: a868 20be becd 86bd de57 ccbb b0be a8bd
00000090: 1214 fd3e 6dfe 5f3e 363a 50be 64ad 9cbe
000000a0: 577e b13d 05f2 513e d43e f7be 7c28 523e
000000b0: 6ea9 4cbe 0eb6 b9be bee9 b7be 18d5 6fbe
000000c0: f603 96be f479 6d3e 5528 9e3d 7771 8fbe
000000d0: af02 10bf b790 ff3e 5bb1 083f 61ff 15be
000000e0: 258b 8a3d fcd1 b33b 2e9c d8be fb4f 37be
000000f0: 92cc 6f3e d35b a63e b671 883e b6ec aabe
00000100: 1ce2 583d 8286 febd 5953 5a3e 03e2 9cbe
00000110: 4559 3bbe 0c10 67be 071f 8fbe 8f5f 88bc
00000120: 49bc 32bd c61a 573e 4b51 a23c c353 7b3e
00000130: 1a27 2fbe 9099 e73d c5f5 093e dd16 fbbe
00000140: 15cc 863e a31f c9bd bfbe 8f3d 4a8c 083f
00000150: 3a72 e1be 4499 3cbd 0739 513d 244c 90bd
00000160: c510 3bbe 1e75 f53e 8c6d 3cbe 2ad8 1e3f
00000170: ca43 d13d c7e2 f8bc 56bd c4bb c986 c93d
00000180: 5ca5 983e b31d c03d 6001 91be d0e1 34bd
00000190: 0b84 bd3e 73fa 5e3e 7d29 41bd b071 3fbe
000001a0: bc75 fa3c 21d1 88be f6b6 eebe afae d53d
000001b0: c2e3 843e f4c4 8cbe 4534 d63c 2e4d 84be
000001c0: db10 c0bd 3ed4 373e 7933 903e ca9c bcbd
000001d0: 4c03 d2bd 80b5 d73e f503 c13e 391a 973d
000001e0: 449e 8ebe 1bea 903d 747b 87be 03bb 31bd
000001f0: 66ee be3e 92f5 da3d 6388 fb3e 6b98 b4be
-0.023440734 0.11844362 0.13138594 0.31241822 -0.09586007 -0.022459054 -0.0076062703 -0.27324608
0.13651808 -0.3058786 -0.33555245 0.13538985 -0.32285753 0.0138731655 0.41559014 -0.5092526
-0.13156295 0.10175511 -0.34090278 0.20008707 -0.23474514 -0.43923002 0.17960067 0.24404827
-0.2045896 0.42987034 -0.17900653 0.61344147 -0.28669482 0.18647875 0.063707724 0.047357965
-0.15664923 -0.06582211 -0.0062360605 -0.08239496 0.49429375 0.218744 -0.20334706 -0.30601037
0.086666755 0.2050248 -0.48290122 0.20523256 -0.19986507 -0.3627171 -0.3592052 -0.23421133
-0.29299897 0.23191053 0.077225365 -0.28016254 -0.56254095 0.49915096 0.5339562 -0.146482
0.06764821 0.0054876786 -0.42306656 -0.17901604 0.23417881 0.3249193 0.26649255 -0.3338372
0.05295001 -0.12427999 0.21320857 -0.30641183 -0.18295772 -0.22564715 -0.2795336 -0.016647128
-0.043636594 0.21006307 0.019814154 0.24543671 -0.1710476 0.113085866 0.1347266 -0.4904088
0.26327577 -0.09820487 0.07018804 0.53339064 -0.4403246 -0.046044603 0.051079776 -0.07045773
-0.18268116 0.47940916 -0.18401164 0.6204859 0.10218008 -0.030381573 -0.006004016 0.09840161
0.2981366 0.09380665 -0.28321362 -0.044160664 0.37014803 0.21775226 -0.047158707 -0.18695712
0.030573718 -0.26722053 -0.46623963 0.10433709 0.25955015 -0.27494013 0.02614797 -0.25840133
-0.09378215 0.17952058 0.2816427 -0.09209593 -0.10254535 0.4213066 0.3769833 0.073780484
-0.27855122 0.07075902 -0.26461375 -0.04339124 0.3729126 0.1069137 0.49127492 -0.35272536
